<?xml version="1.0" ?>
<net name="torch-jit-export" version="11">
	<layers>
		<layer id="0" name="images" type="Parameter" version="opset1">
			<data element_type="f32" shape="1,3,640,640"/>
			<rt_info>
				<attribute name="fused_names" value="images" version="0"/>
				<attribute name="old_api_map_element_type" value="f16" version="0"/>
			</rt_info>
			<output>
				<port id="0" names="images" precision="FP32">
					<dim>1</dim>
					<dim>3</dim>
					<dim>640</dim>
					<dim>640</dim>
				</port>
			</output>
		</layer>
		<layer id="1" name="Constant_10629_compressed" type="Const" version="opset1">
			<data element_type="f16" offset="0" shape="1, 1, 1, 1" size="2"/>
			<output>
				<port id="0" precision="FP16">
					<dim>1</dim>
					<dim>1</dim>
					<dim>1</dim>
					<dim>1</dim>
				</port>
			</output>
		</layer>
		<layer id="2" name="Constant_10629" type="Convert" version="opset1">
			<data destination_type="f32"/>
			<rt_info>
				<attribute name="decompression" version="0"/>
			</rt_info>
			<input>
				<port id="0" precision="FP16">
					<dim>1</dim>
					<dim>1</dim>
					<dim>1</dim>
					<dim>1</dim>
				</port>
			</input>
			<output>
				<port id="1" precision="FP32">
					<dim>1</dim>
					<dim>1</dim>
					<dim>1</dim>
					<dim>1</dim>
				</port>
			</output>
		</layer>
		<layer id="3" name="Divide_3414" type="Multiply" version="opset1">
			<data auto_broadcast="numpy"/>
			<rt_info>
				<attribute name="fused_names" value="Constant_3413, Divide_3414" version="0"/>
				<attribute name="preprocessing" version="0"/>
			</rt_info>
			<input>
				<port id="0" precision="FP32">
					<dim>1</dim>
					<dim>3</dim>
					<dim>640</dim>
					<dim>640</dim>
				</port>
				<port id="1" precision="FP32">
					<dim>1</dim>
					<dim>1</dim>
					<dim>1</dim>
					<dim>1</dim>
				</port>
			</input>
			<output>
				<port id="2" precision="FP32">
					<dim>1</dim>
					<dim>3</dim>
					<dim>640</dim>
					<dim>640</dim>
				</port>
			</output>
		</layer>
		<layer id="4" name="Constant_9039" type="Const" version="opset1">
			<data element_type="i64" offset="2" shape="3" size="24"/>
			<rt_info>
				<attribute name="fused_names" value="170" version="0"/>
			</rt_info>
			<output>
				<port id="0" precision="I64">
					<dim>3</dim>
				</port>
			</output>
		</layer>
		<layer id="5" name="Constant_9042" type="Const" version="opset1">
			<data element_type="i64" offset="26" shape="3" size="24"/>
			<rt_info>
				<attribute name="fused_names" value="170" version="0"/>
			</rt_info>
			<output>
				<port id="0" precision="I64">
					<dim>3</dim>
				</port>
			</output>
		</layer>
		<layer id="6" name="Constant_9045" type="Const" version="opset1">
			<data element_type="i64" offset="50" shape="3" size="24"/>
			<rt_info>
				<attribute name="fused_names" value="170" version="0"/>
			</rt_info>
			<output>
				<port id="0" precision="I64">
					<dim>3</dim>
				</port>
			</output>
		</layer>
		<layer id="7" name="170" type="StridedSlice" version="opset1">
			<data begin_mask="1, 1, 0" ellipsis_mask="" end_mask="1, 1, 0" new_axis_mask="" shrink_axis_mask=""/>
			<rt_info>
				<attribute name="fused_names" value="170" version="0"/>
			</rt_info>
			<input>
				<port id="0" precision="FP32">
					<dim>1</dim>
					<dim>3</dim>
					<dim>640</dim>
					<dim>640</dim>
				</port>
				<port id="1" precision="I64">
					<dim>3</dim>
				</port>
				<port id="2" precision="I64">
					<dim>3</dim>
				</port>
				<port id="3" precision="I64">
					<dim>3</dim>
				</port>
			</input>
			<output>
				<port id="4" names="170" precision="FP32">
					<dim>1</dim>
					<dim>3</dim>
					<dim>320</dim>
					<dim>640</dim>
				</port>
			</output>
		</layer>
		<layer id="8" name="Constant_9051" type="Const" version="opset1">
			<data element_type="i64" offset="74" shape="4" size="32"/>
			<rt_info>
				<attribute name="fused_names" value="175" version="0"/>
			</rt_info>
			<output>
				<port id="0" precision="I64">
					<dim>4</dim>
				</port>
			</output>
		</layer>
		<layer id="9" name="Constant_9054" type="Const" version="opset1">
			<data element_type="i64" offset="106" shape="4" size="32"/>
			<rt_info>
				<attribute name="fused_names" value="175" version="0"/>
			</rt_info>
			<output>
				<port id="0" precision="I64">
					<dim>4</dim>
				</port>
			</output>
		</layer>
		<layer id="10" name="Constant_9057" type="Const" version="opset1">
			<data element_type="i64" offset="138" shape="4" size="32"/>
			<rt_info>
				<attribute name="fused_names" value="175" version="0"/>
			</rt_info>
			<output>
				<port id="0" precision="I64">
					<dim>4</dim>
				</port>
			</output>
		</layer>
		<layer id="11" name="175" type="StridedSlice" version="opset1">
			<data begin_mask="1, 1, 1, 0" ellipsis_mask="" end_mask="1, 1, 1, 0" new_axis_mask="" shrink_axis_mask=""/>
			<rt_info>
				<attribute name="fused_names" value="175" version="0"/>
			</rt_info>
			<input>
				<port id="0" precision="FP32">
					<dim>1</dim>
					<dim>3</dim>
					<dim>320</dim>
					<dim>640</dim>
				</port>
				<port id="1" precision="I64">
					<dim>4</dim>
				</port>
				<port id="2" precision="I64">
					<dim>4</dim>
				</port>
				<port id="3" precision="I64">
					<dim>4</dim>
				</port>
			</input>
			<output>
				<port id="4" names="175" precision="FP32">
					<dim>1</dim>
					<dim>3</dim>
					<dim>320</dim>
					<dim>320</dim>
				</port>
			</output>
		</layer>
		<layer id="12" name="Constant_9063" type="Const" version="opset1">
			<data element_type="i64" offset="170" shape="3" size="24"/>
			<rt_info>
				<attribute name="fused_names" value="180" version="0"/>
			</rt_info>
			<output>
				<port id="0" precision="I64">
					<dim>3</dim>
				</port>
			</output>
		</layer>
		<layer id="13" name="Constant_9066" type="Const" version="opset1">
			<data element_type="i64" offset="26" shape="3" size="24"/>
			<rt_info>
				<attribute name="fused_names" value="180" version="0"/>
			</rt_info>
			<output>
				<port id="0" precision="I64">
					<dim>3</dim>
				</port>
			</output>
		</layer>
		<layer id="14" name="Constant_9069" type="Const" version="opset1">
			<data element_type="i64" offset="50" shape="3" size="24"/>
			<rt_info>
				<attribute name="fused_names" value="180" version="0"/>
			</rt_info>
			<output>
				<port id="0" precision="I64">
					<dim>3</dim>
				</port>
			</output>
		</layer>
		<layer id="15" name="180" type="StridedSlice" version="opset1">
			<data begin_mask="1, 1, 0" ellipsis_mask="" end_mask="1, 1, 0" new_axis_mask="" shrink_axis_mask=""/>
			<rt_info>
				<attribute name="fused_names" value="180" version="0"/>
			</rt_info>
			<input>
				<port id="0" precision="FP32">
					<dim>1</dim>
					<dim>3</dim>
					<dim>640</dim>
					<dim>640</dim>
				</port>
				<port id="1" precision="I64">
					<dim>3</dim>
				</port>
				<port id="2" precision="I64">
					<dim>3</dim>
				</port>
				<port id="3" precision="I64">
					<dim>3</dim>
				</port>
			</input>
			<output>
				<port id="4" names="180" precision="FP32">
					<dim>1</dim>
					<dim>3</dim>
					<dim>320</dim>
					<dim>640</dim>
				</port>
			</output>
		</layer>
		<layer id="16" name="Constant_9075" type="Const" version="opset1">
			<data element_type="i64" offset="74" shape="4" size="32"/>
			<rt_info>
				<attribute name="fused_names" value="185" version="0"/>
			</rt_info>
			<output>
				<port id="0" precision="I64">
					<dim>4</dim>
				</port>
			</output>
		</layer>
		<layer id="17" name="Constant_9078" type="Const" version="opset1">
			<data element_type="i64" offset="106" shape="4" size="32"/>
			<rt_info>
				<attribute name="fused_names" value="185" version="0"/>
			</rt_info>
			<output>
				<port id="0" precision="I64">
					<dim>4</dim>
				</port>
			</output>
		</layer>
		<layer id="18" name="Constant_9081" type="Const" version="opset1">
			<data element_type="i64" offset="138" shape="4" size="32"/>
			<rt_info>
				<attribute name="fused_names" value="185" version="0"/>
			</rt_info>
			<output>
				<port id="0" precision="I64">
					<dim>4</dim>
				</port>
			</output>
		</layer>
		<layer id="19" name="185" type="StridedSlice" version="opset1">
			<data begin_mask="1, 1, 1, 0" ellipsis_mask="" end_mask="1, 1, 1, 0" new_axis_mask="" shrink_axis_mask=""/>
			<rt_info>
				<attribute name="fused_names" value="185" version="0"/>
			</rt_info>
			<input>
				<port id="0" precision="FP32">
					<dim>1</dim>
					<dim>3</dim>
					<dim>320</dim>
					<dim>640</dim>
				</port>
				<port id="1" precision="I64">
					<dim>4</dim>
				</port>
				<port id="2" precision="I64">
					<dim>4</dim>
				</port>
				<port id="3" precision="I64">
					<dim>4</dim>
				</port>
			</input>
			<output>
				<port id="4" names="185" precision="FP32">
					<dim>1</dim>
					<dim>3</dim>
					<dim>320</dim>
					<dim>320</dim>
				</port>
			</output>
		</layer>
		<layer id="20" name="Constant_9087" type="Const" version="opset1">
			<data element_type="i64" offset="2" shape="3" size="24"/>
			<rt_info>
				<attribute name="fused_names" value="190" version="0"/>
			</rt_info>
			<output>
				<port id="0" precision="I64">
					<dim>3</dim>
				</port>
			</output>
		</layer>
		<layer id="21" name="Constant_9090" type="Const" version="opset1">
			<data element_type="i64" offset="26" shape="3" size="24"/>
			<rt_info>
				<attribute name="fused_names" value="190" version="0"/>
			</rt_info>
			<output>
				<port id="0" precision="I64">
					<dim>3</dim>
				</port>
			</output>
		</layer>
		<layer id="22" name="Constant_9093" type="Const" version="opset1">
			<data element_type="i64" offset="50" shape="3" size="24"/>
			<rt_info>
				<attribute name="fused_names" value="190" version="0"/>
			</rt_info>
			<output>
				<port id="0" precision="I64">
					<dim>3</dim>
				</port>
			</output>
		</layer>
		<layer id="23" name="190" type="StridedSlice" version="opset1">
			<data begin_mask="1, 1, 0" ellipsis_mask="" end_mask="1, 1, 0" new_axis_mask="" shrink_axis_mask=""/>
			<rt_info>
				<attribute name="fused_names" value="190" version="0"/>
			</rt_info>
			<input>
				<port id="0" precision="FP32">
					<dim>1</dim>
					<dim>3</dim>
					<dim>640</dim>
					<dim>640</dim>
				</port>
				<port id="1" precision="I64">
					<dim>3</dim>
				</port>
				<port id="2" precision="I64">
					<dim>3</dim>
				</port>
				<port id="3" precision="I64">
					<dim>3</dim>
				</port>
			</input>
			<output>
				<port id="4" names="190" precision="FP32">
					<dim>1</dim>
					<dim>3</dim>
					<dim>320</dim>
					<dim>640</dim>
				</port>
			</output>
		</layer>
		<layer id="24" name="Constant_9099" type="Const" version="opset1">
			<data element_type="i64" offset="194" shape="4" size="32"/>
			<rt_info>
				<attribute name="fused_names" value="195" version="0"/>
			</rt_info>
			<output>
				<port id="0" precision="I64">
					<dim>4</dim>
				</port>
			</output>
		</layer>
		<layer id="25" name="Constant_9102" type="Const" version="opset1">
			<data element_type="i64" offset="106" shape="4" size="32"/>
			<rt_info>
				<attribute name="fused_names" value="195" version="0"/>
			</rt_info>
			<output>
				<port id="0" precision="I64">
					<dim>4</dim>
				</port>
			</output>
		</layer>
		<layer id="26" name="Constant_9105" type="Const" version="opset1">
			<data element_type="i64" offset="138" shape="4" size="32"/>
			<rt_info>
				<attribute name="fused_names" value="195" version="0"/>
			</rt_info>
			<output>
				<port id="0" precision="I64">
					<dim>4</dim>
				</port>
			</output>
		</layer>
		<layer id="27" name="195" type="StridedSlice" version="opset1">
			<data begin_mask="1, 1, 1, 0" ellipsis_mask="" end_mask="1, 1, 1, 0" new_axis_mask="" shrink_axis_mask=""/>
			<rt_info>
				<attribute name="fused_names" value="195" version="0"/>
			</rt_info>
			<input>
				<port id="0" precision="FP32">
					<dim>1</dim>
					<dim>3</dim>
					<dim>320</dim>
					<dim>640</dim>
				</port>
				<port id="1" precision="I64">
					<dim>4</dim>
				</port>
				<port id="2" precision="I64">
					<dim>4</dim>
				</port>
				<port id="3" precision="I64">
					<dim>4</dim>
				</port>
			</input>
			<output>
				<port id="4" names="195" precision="FP32">
					<dim>1</dim>
					<dim>3</dim>
					<dim>320</dim>
					<dim>320</dim>
				</port>
			</output>
		</layer>
		<layer id="28" name="Constant_9111" type="Const" version="opset1">
			<data element_type="i64" offset="170" shape="3" size="24"/>
			<rt_info>
				<attribute name="fused_names" value="200" version="0"/>
			</rt_info>
			<output>
				<port id="0" precision="I64">
					<dim>3</dim>
				</port>
			</output>
		</layer>
		<layer id="29" name="Constant_9114" type="Const" version="opset1">
			<data element_type="i64" offset="26" shape="3" size="24"/>
			<rt_info>
				<attribute name="fused_names" value="200" version="0"/>
			</rt_info>
			<output>
				<port id="0" precision="I64">
					<dim>3</dim>
				</port>
			</output>
		</layer>
		<layer id="30" name="Constant_9117" type="Const" version="opset1">
			<data element_type="i64" offset="50" shape="3" size="24"/>
			<rt_info>
				<attribute name="fused_names" value="200" version="0"/>
			</rt_info>
			<output>
				<port id="0" precision="I64">
					<dim>3</dim>
				</port>
			</output>
		</layer>
		<layer id="31" name="200" type="StridedSlice" version="opset1">
			<data begin_mask="1, 1, 0" ellipsis_mask="" end_mask="1, 1, 0" new_axis_mask="" shrink_axis_mask=""/>
			<rt_info>
				<attribute name="fused_names" value="200" version="0"/>
			</rt_info>
			<input>
				<port id="0" precision="FP32">
					<dim>1</dim>
					<dim>3</dim>
					<dim>640</dim>
					<dim>640</dim>
				</port>
				<port id="1" precision="I64">
					<dim>3</dim>
				</port>
				<port id="2" precision="I64">
					<dim>3</dim>
				</port>
				<port id="3" precision="I64">
					<dim>3</dim>
				</port>
			</input>
			<output>
				<port id="4" names="200" precision="FP32">
					<dim>1</dim>
					<dim>3</dim>
					<dim>320</dim>
					<dim>640</dim>
				</port>
			</output>
		</layer>
		<layer id="32" name="Constant_9123" type="Const" version="opset1">
			<data element_type="i64" offset="194" shape="4" size="32"/>
			<rt_info>
				<attribute name="fused_names" value="205" version="0"/>
			</rt_info>
			<output>
				<port id="0" precision="I64">
					<dim>4</dim>
				</port>
			</output>
		</layer>
		<layer id="33" name="Constant_9126" type="Const" version="opset1">
			<data element_type="i64" offset="106" shape="4" size="32"/>
			<rt_info>
				<attribute name="fused_names" value="205" version="0"/>
			</rt_info>
			<output>
				<port id="0" precision="I64">
					<dim>4</dim>
				</port>
			</output>
		</layer>
		<layer id="34" name="Constant_9129" type="Const" version="opset1">
			<data element_type="i64" offset="138" shape="4" size="32"/>
			<rt_info>
				<attribute name="fused_names" value="205" version="0"/>
			</rt_info>
			<output>
				<port id="0" precision="I64">
					<dim>4</dim>
				</port>
			</output>
		</layer>
		<layer id="35" name="205" type="StridedSlice" version="opset1">
			<data begin_mask="1, 1, 1, 0" ellipsis_mask="" end_mask="1, 1, 1, 0" new_axis_mask="" shrink_axis_mask=""/>
			<rt_info>
				<attribute name="fused_names" value="205" version="0"/>
			</rt_info>
			<input>
				<port id="0" precision="FP32">
					<dim>1</dim>
					<dim>3</dim>
					<dim>320</dim>
					<dim>640</dim>
				</port>
				<port id="1" precision="I64">
					<dim>4</dim>
				</port>
				<port id="2" precision="I64">
					<dim>4</dim>
				</port>
				<port id="3" precision="I64">
					<dim>4</dim>
				</port>
			</input>
			<output>
				<port id="4" names="205" precision="FP32">
					<dim>1</dim>
					<dim>3</dim>
					<dim>320</dim>
					<dim>320</dim>
				</port>
			</output>
		</layer>
		<layer id="36" name="206" type="Concat" version="opset1">
			<data axis="1"/>
			<rt_info>
				<attribute name="fused_names" value="206" version="0"/>
			</rt_info>
			<input>
				<port id="0" precision="FP32">
					<dim>1</dim>
					<dim>3</dim>
					<dim>320</dim>
					<dim>320</dim>
				</port>
				<port id="1" precision="FP32">
					<dim>1</dim>
					<dim>3</dim>
					<dim>320</dim>
					<dim>320</dim>
				</port>
				<port id="2" precision="FP32">
					<dim>1</dim>
					<dim>3</dim>
					<dim>320</dim>
					<dim>320</dim>
				</port>
				<port id="3" precision="FP32">
					<dim>1</dim>
					<dim>3</dim>
					<dim>320</dim>
					<dim>320</dim>
				</port>
			</input>
			<output>
				<port id="4" names="206" precision="FP32">
					<dim>1</dim>
					<dim>12</dim>
					<dim>320</dim>
					<dim>320</dim>
				</port>
			</output>
		</layer>
		<layer id="37" name="model.0.conv.conv.weight_compressed" type="Const" version="opset1">
			<data element_type="f16" offset="226" shape="32, 12, 3, 3" size="6912"/>
			<output>
				<port id="0" precision="FP16">
					<dim>32</dim>
					<dim>12</dim>
					<dim>3</dim>
					<dim>3</dim>
				</port>
			</output>
		</layer>
		<layer id="38" name="model.0.conv.conv.weight" type="Convert" version="opset1">
			<data destination_type="f32"/>
			<rt_info>
				<attribute name="decompression" version="0"/>
				<attribute name="fused_names" value="model.0.conv.conv.weight" version="0"/>
			</rt_info>
			<input>
				<port id="0" precision="FP16">
					<dim>32</dim>
					<dim>12</dim>
					<dim>3</dim>
					<dim>3</dim>
				</port>
			</input>
			<output>
				<port id="1" names="model.0.conv.conv.weight" precision="FP32">
					<dim>32</dim>
					<dim>12</dim>
					<dim>3</dim>
					<dim>3</dim>
				</port>
			</output>
		</layer>
		<layer id="39" name="Convolution_212" type="Convolution" version="opset1">
			<data auto_pad="explicit" dilations="1, 1" pads_begin="1, 1" pads_end="1, 1" strides="1, 1"/>
			<rt_info>
				<attribute name="fused_names" value="Convolution_212" version="0"/>
			</rt_info>
			<input>
				<port id="0" precision="FP32">
					<dim>1</dim>
					<dim>12</dim>
					<dim>320</dim>
					<dim>320</dim>
				</port>
				<port id="1" precision="FP32">
					<dim>32</dim>
					<dim>12</dim>
					<dim>3</dim>
					<dim>3</dim>
				</port>
			</input>
			<output>
				<port id="2" precision="FP32">
					<dim>1</dim>
					<dim>32</dim>
					<dim>320</dim>
					<dim>320</dim>
				</port>
			</output>
		</layer>
		<layer id="40" name="Reshape_232_compressed" type="Const" version="opset1">
			<data element_type="f16" offset="7138" shape="1, 32, 1, 1" size="64"/>
			<output>
				<port id="0" precision="FP16">
					<dim>1</dim>
					<dim>32</dim>
					<dim>1</dim>
					<dim>1</dim>
				</port>
			</output>
		</layer>
		<layer id="41" name="Reshape_232" type="Convert" version="opset1">
			<data destination_type="f32"/>
			<rt_info>
				<attribute name="decompression" version="0"/>
			</rt_info>
			<input>
				<port id="0" precision="FP16">
					<dim>1</dim>
					<dim>32</dim>
					<dim>1</dim>
					<dim>1</dim>
				</port>
			</input>
			<output>
				<port id="1" precision="FP32">
					<dim>1</dim>
					<dim>32</dim>
					<dim>1</dim>
					<dim>1</dim>
				</port>
			</output>
		</layer>
		<layer id="42" name="207" type="Add" version="opset1">
			<data auto_broadcast="numpy"/>
			<rt_info>
				<attribute name="fused_names" value="207, Concat_231, Reshape_232" version="0"/>
			</rt_info>
			<input>
				<port id="0" precision="FP32">
					<dim>1</dim>
					<dim>32</dim>
					<dim>320</dim>
					<dim>320</dim>
				</port>
				<port id="1" precision="FP32">
					<dim>1</dim>
					<dim>32</dim>
					<dim>1</dim>
					<dim>1</dim>
				</port>
			</input>
			<output>
				<port id="2" names="207" precision="FP32">
					<dim>1</dim>
					<dim>32</dim>
					<dim>320</dim>
					<dim>320</dim>
				</port>
			</output>
		</layer>
		<layer id="43" name="Constant_260_compressed" type="Const" version="opset1">
			<data element_type="f16" offset="7202" shape="1" size="2"/>
			<output>
				<port id="0" precision="FP16">
					<dim>1</dim>
				</port>
			</output>
		</layer>
		<layer id="44" name="Constant_260" type="Convert" version="opset1">
			<data destination_type="f32"/>
			<rt_info>
				<attribute name="decompression" version="0"/>
				<attribute name="fused_names" value="Constant_260" version="0"/>
			</rt_info>
			<input>
				<port id="0" precision="FP16">
					<dim>1</dim>
				</port>
			</input>
			<output>
				<port id="1" precision="FP32">
					<dim>1</dim>
				</port>
			</output>
		</layer>
		<layer id="45" name="208" type="PReLU" version="opset1">
			<rt_info>
				<attribute name="fused_names" value="208" version="0"/>
			</rt_info>
			<input>
				<port id="0" precision="FP32">
					<dim>1</dim>
					<dim>32</dim>
					<dim>320</dim>
					<dim>320</dim>
				</port>
				<port id="1" precision="FP32">
					<dim>1</dim>
				</port>
			</input>
			<output>
				<port id="2" names="208" precision="FP32">
					<dim>1</dim>
					<dim>32</dim>
					<dim>320</dim>
					<dim>320</dim>
				</port>
			</output>
		</layer>
		<layer id="46" name="model.1.conv.weight_compressed" type="Const" version="opset1">
			<data element_type="f16" offset="7204" shape="64, 32, 3, 3" size="36864"/>
			<output>
				<port id="0" precision="FP16">
					<dim>64</dim>
					<dim>32</dim>
					<dim>3</dim>
					<dim>3</dim>
				</port>
			</output>
		</layer>
		<layer id="47" name="model.1.conv.weight" type="Convert" version="opset1">
			<data destination_type="f32"/>
			<rt_info>
				<attribute name="decompression" version="0"/>
				<attribute name="fused_names" value="model.1.conv.weight" version="0"/>
			</rt_info>
			<input>
				<port id="0" precision="FP16">
					<dim>64</dim>
					<dim>32</dim>
					<dim>3</dim>
					<dim>3</dim>
				</port>
			</input>
			<output>
				<port id="1" names="model.1.conv.weight" precision="FP32">
					<dim>64</dim>
					<dim>32</dim>
					<dim>3</dim>
					<dim>3</dim>
				</port>
			</output>
		</layer>
		<layer id="48" name="Convolution_262" type="Convolution" version="opset1">
			<data auto_pad="explicit" dilations="1, 1" pads_begin="1, 1" pads_end="1, 1" strides="2, 2"/>
			<rt_info>
				<attribute name="fused_names" value="Convolution_262" version="0"/>
			</rt_info>
			<input>
				<port id="0" precision="FP32">
					<dim>1</dim>
					<dim>32</dim>
					<dim>320</dim>
					<dim>320</dim>
				</port>
				<port id="1" precision="FP32">
					<dim>64</dim>
					<dim>32</dim>
					<dim>3</dim>
					<dim>3</dim>
				</port>
			</input>
			<output>
				<port id="2" precision="FP32">
					<dim>1</dim>
					<dim>64</dim>
					<dim>160</dim>
					<dim>160</dim>
				</port>
			</output>
		</layer>
		<layer id="49" name="Reshape_282_compressed" type="Const" version="opset1">
			<data element_type="f16" offset="44068" shape="1, 64, 1, 1" size="128"/>
			<output>
				<port id="0" precision="FP16">
					<dim>1</dim>
					<dim>64</dim>
					<dim>1</dim>
					<dim>1</dim>
				</port>
			</output>
		</layer>
		<layer id="50" name="Reshape_282" type="Convert" version="opset1">
			<data destination_type="f32"/>
			<rt_info>
				<attribute name="decompression" version="0"/>
			</rt_info>
			<input>
				<port id="0" precision="FP16">
					<dim>1</dim>
					<dim>64</dim>
					<dim>1</dim>
					<dim>1</dim>
				</port>
			</input>
			<output>
				<port id="1" precision="FP32">
					<dim>1</dim>
					<dim>64</dim>
					<dim>1</dim>
					<dim>1</dim>
				</port>
			</output>
		</layer>
		<layer id="51" name="209" type="Add" version="opset1">
			<data auto_broadcast="numpy"/>
			<rt_info>
				<attribute name="fused_names" value="209, Concat_281, Reshape_282" version="0"/>
			</rt_info>
			<input>
				<port id="0" precision="FP32">
					<dim>1</dim>
					<dim>64</dim>
					<dim>160</dim>
					<dim>160</dim>
				</port>
				<port id="1" precision="FP32">
					<dim>1</dim>
					<dim>64</dim>
					<dim>1</dim>
					<dim>1</dim>
				</port>
			</input>
			<output>
				<port id="2" names="209" precision="FP32">
					<dim>1</dim>
					<dim>64</dim>
					<dim>160</dim>
					<dim>160</dim>
				</port>
			</output>
		</layer>
		<layer id="52" name="Constant_310_compressed" type="Const" version="opset1">
			<data element_type="f16" offset="7202" shape="1" size="2"/>
			<output>
				<port id="0" precision="FP16">
					<dim>1</dim>
				</port>
			</output>
		</layer>
		<layer id="53" name="Constant_310" type="Convert" version="opset1">
			<data destination_type="f32"/>
			<rt_info>
				<attribute name="decompression" version="0"/>
				<attribute name="fused_names" value="Constant_310" version="0"/>
			</rt_info>
			<input>
				<port id="0" precision="FP16">
					<dim>1</dim>
				</port>
			</input>
			<output>
				<port id="1" precision="FP32">
					<dim>1</dim>
				</port>
			</output>
		</layer>
		<layer id="54" name="210" type="PReLU" version="opset1">
			<rt_info>
				<attribute name="fused_names" value="210" version="0"/>
			</rt_info>
			<input>
				<port id="0" precision="FP32">
					<dim>1</dim>
					<dim>64</dim>
					<dim>160</dim>
					<dim>160</dim>
				</port>
				<port id="1" precision="FP32">
					<dim>1</dim>
				</port>
			</input>
			<output>
				<port id="2" names="210" precision="FP32">
					<dim>1</dim>
					<dim>64</dim>
					<dim>160</dim>
					<dim>160</dim>
				</port>
			</output>
		</layer>
		<layer id="55" name="model.2.cv1.conv.weight_compressed" type="Const" version="opset1">
			<data element_type="f16" offset="44196" shape="32, 64, 1, 1" size="4096"/>
			<output>
				<port id="0" precision="FP16">
					<dim>32</dim>
					<dim>64</dim>
					<dim>1</dim>
					<dim>1</dim>
				</port>
			</output>
		</layer>
		<layer id="56" name="model.2.cv1.conv.weight" type="Convert" version="opset1">
			<data destination_type="f32"/>
			<rt_info>
				<attribute name="decompression" version="0"/>
				<attribute name="fused_names" value="model.2.cv1.conv.weight" version="0"/>
			</rt_info>
			<input>
				<port id="0" precision="FP16">
					<dim>32</dim>
					<dim>64</dim>
					<dim>1</dim>
					<dim>1</dim>
				</port>
			</input>
			<output>
				<port id="1" names="model.2.cv1.conv.weight" precision="FP32">
					<dim>32</dim>
					<dim>64</dim>
					<dim>1</dim>
					<dim>1</dim>
				</port>
			</output>
		</layer>
		<layer id="57" name="Convolution_312" type="Convolution" version="opset1">
			<data auto_pad="explicit" dilations="1, 1" pads_begin="0, 0" pads_end="0, 0" strides="1, 1"/>
			<rt_info>
				<attribute name="fused_names" value="Convolution_312" version="0"/>
			</rt_info>
			<input>
				<port id="0" precision="FP32">
					<dim>1</dim>
					<dim>64</dim>
					<dim>160</dim>
					<dim>160</dim>
				</port>
				<port id="1" precision="FP32">
					<dim>32</dim>
					<dim>64</dim>
					<dim>1</dim>
					<dim>1</dim>
				</port>
			</input>
			<output>
				<port id="2" precision="FP32">
					<dim>1</dim>
					<dim>32</dim>
					<dim>160</dim>
					<dim>160</dim>
				</port>
			</output>
		</layer>
		<layer id="58" name="Reshape_332_compressed" type="Const" version="opset1">
			<data element_type="f16" offset="48292" shape="1, 32, 1, 1" size="64"/>
			<output>
				<port id="0" precision="FP16">
					<dim>1</dim>
					<dim>32</dim>
					<dim>1</dim>
					<dim>1</dim>
				</port>
			</output>
		</layer>
		<layer id="59" name="Reshape_332" type="Convert" version="opset1">
			<data destination_type="f32"/>
			<rt_info>
				<attribute name="decompression" version="0"/>
			</rt_info>
			<input>
				<port id="0" precision="FP16">
					<dim>1</dim>
					<dim>32</dim>
					<dim>1</dim>
					<dim>1</dim>
				</port>
			</input>
			<output>
				<port id="1" precision="FP32">
					<dim>1</dim>
					<dim>32</dim>
					<dim>1</dim>
					<dim>1</dim>
				</port>
			</output>
		</layer>
		<layer id="60" name="211" type="Add" version="opset1">
			<data auto_broadcast="numpy"/>
			<rt_info>
				<attribute name="fused_names" value="211, Concat_331, Reshape_332" version="0"/>
			</rt_info>
			<input>
				<port id="0" precision="FP32">
					<dim>1</dim>
					<dim>32</dim>
					<dim>160</dim>
					<dim>160</dim>
				</port>
				<port id="1" precision="FP32">
					<dim>1</dim>
					<dim>32</dim>
					<dim>1</dim>
					<dim>1</dim>
				</port>
			</input>
			<output>
				<port id="2" names="211" precision="FP32">
					<dim>1</dim>
					<dim>32</dim>
					<dim>160</dim>
					<dim>160</dim>
				</port>
			</output>
		</layer>
		<layer id="61" name="Constant_360_compressed" type="Const" version="opset1">
			<data element_type="f16" offset="7202" shape="1" size="2"/>
			<output>
				<port id="0" precision="FP16">
					<dim>1</dim>
				</port>
			</output>
		</layer>
		<layer id="62" name="Constant_360" type="Convert" version="opset1">
			<data destination_type="f32"/>
			<rt_info>
				<attribute name="decompression" version="0"/>
				<attribute name="fused_names" value="Constant_360" version="0"/>
			</rt_info>
			<input>
				<port id="0" precision="FP16">
					<dim>1</dim>
				</port>
			</input>
			<output>
				<port id="1" precision="FP32">
					<dim>1</dim>
				</port>
			</output>
		</layer>
		<layer id="63" name="212" type="PReLU" version="opset1">
			<rt_info>
				<attribute name="fused_names" value="212" version="0"/>
			</rt_info>
			<input>
				<port id="0" precision="FP32">
					<dim>1</dim>
					<dim>32</dim>
					<dim>160</dim>
					<dim>160</dim>
				</port>
				<port id="1" precision="FP32">
					<dim>1</dim>
				</port>
			</input>
			<output>
				<port id="2" names="212" precision="FP32">
					<dim>1</dim>
					<dim>32</dim>
					<dim>160</dim>
					<dim>160</dim>
				</port>
			</output>
		</layer>
		<layer id="64" name="model.2.m.0.cv1.conv.weight_compressed" type="Const" version="opset1">
			<data element_type="f16" offset="48356" shape="32, 32, 1, 1" size="2048"/>
			<output>
				<port id="0" precision="FP16">
					<dim>32</dim>
					<dim>32</dim>
					<dim>1</dim>
					<dim>1</dim>
				</port>
			</output>
		</layer>
		<layer id="65" name="model.2.m.0.cv1.conv.weight" type="Convert" version="opset1">
			<data destination_type="f32"/>
			<rt_info>
				<attribute name="decompression" version="0"/>
				<attribute name="fused_names" value="model.2.m.0.cv1.conv.weight" version="0"/>
			</rt_info>
			<input>
				<port id="0" precision="FP16">
					<dim>32</dim>
					<dim>32</dim>
					<dim>1</dim>
					<dim>1</dim>
				</port>
			</input>
			<output>
				<port id="1" names="model.2.m.0.cv1.conv.weight" precision="FP32">
					<dim>32</dim>
					<dim>32</dim>
					<dim>1</dim>
					<dim>1</dim>
				</port>
			</output>
		</layer>
		<layer id="66" name="Convolution_362" type="Convolution" version="opset1">
			<data auto_pad="explicit" dilations="1, 1" pads_begin="0, 0" pads_end="0, 0" strides="1, 1"/>
			<rt_info>
				<attribute name="fused_names" value="Convolution_362" version="0"/>
			</rt_info>
			<input>
				<port id="0" precision="FP32">
					<dim>1</dim>
					<dim>32</dim>
					<dim>160</dim>
					<dim>160</dim>
				</port>
				<port id="1" precision="FP32">
					<dim>32</dim>
					<dim>32</dim>
					<dim>1</dim>
					<dim>1</dim>
				</port>
			</input>
			<output>
				<port id="2" precision="FP32">
					<dim>1</dim>
					<dim>32</dim>
					<dim>160</dim>
					<dim>160</dim>
				</port>
			</output>
		</layer>
		<layer id="67" name="Reshape_382_compressed" type="Const" version="opset1">
			<data element_type="f16" offset="50404" shape="1, 32, 1, 1" size="64"/>
			<output>
				<port id="0" precision="FP16">
					<dim>1</dim>
					<dim>32</dim>
					<dim>1</dim>
					<dim>1</dim>
				</port>
			</output>
		</layer>
		<layer id="68" name="Reshape_382" type="Convert" version="opset1">
			<data destination_type="f32"/>
			<rt_info>
				<attribute name="decompression" version="0"/>
			</rt_info>
			<input>
				<port id="0" precision="FP16">
					<dim>1</dim>
					<dim>32</dim>
					<dim>1</dim>
					<dim>1</dim>
				</port>
			</input>
			<output>
				<port id="1" precision="FP32">
					<dim>1</dim>
					<dim>32</dim>
					<dim>1</dim>
					<dim>1</dim>
				</port>
			</output>
		</layer>
		<layer id="69" name="213" type="Add" version="opset1">
			<data auto_broadcast="numpy"/>
			<rt_info>
				<attribute name="fused_names" value="213, Concat_381, Reshape_382" version="0"/>
			</rt_info>
			<input>
				<port id="0" precision="FP32">
					<dim>1</dim>
					<dim>32</dim>
					<dim>160</dim>
					<dim>160</dim>
				</port>
				<port id="1" precision="FP32">
					<dim>1</dim>
					<dim>32</dim>
					<dim>1</dim>
					<dim>1</dim>
				</port>
			</input>
			<output>
				<port id="2" names="213" precision="FP32">
					<dim>1</dim>
					<dim>32</dim>
					<dim>160</dim>
					<dim>160</dim>
				</port>
			</output>
		</layer>
		<layer id="70" name="Constant_410_compressed" type="Const" version="opset1">
			<data element_type="f16" offset="7202" shape="1" size="2"/>
			<output>
				<port id="0" precision="FP16">
					<dim>1</dim>
				</port>
			</output>
		</layer>
		<layer id="71" name="Constant_410" type="Convert" version="opset1">
			<data destination_type="f32"/>
			<rt_info>
				<attribute name="decompression" version="0"/>
				<attribute name="fused_names" value="Constant_410" version="0"/>
			</rt_info>
			<input>
				<port id="0" precision="FP16">
					<dim>1</dim>
				</port>
			</input>
			<output>
				<port id="1" precision="FP32">
					<dim>1</dim>
				</port>
			</output>
		</layer>
		<layer id="72" name="214" type="PReLU" version="opset1">
			<rt_info>
				<attribute name="fused_names" value="214" version="0"/>
			</rt_info>
			<input>
				<port id="0" precision="FP32">
					<dim>1</dim>
					<dim>32</dim>
					<dim>160</dim>
					<dim>160</dim>
				</port>
				<port id="1" precision="FP32">
					<dim>1</dim>
				</port>
			</input>
			<output>
				<port id="2" names="214" precision="FP32">
					<dim>1</dim>
					<dim>32</dim>
					<dim>160</dim>
					<dim>160</dim>
				</port>
			</output>
		</layer>
		<layer id="73" name="model.2.m.0.cv2.conv.weight_compressed" type="Const" version="opset1">
			<data element_type="f16" offset="50468" shape="32, 32, 3, 3" size="18432"/>
			<output>
				<port id="0" precision="FP16">
					<dim>32</dim>
					<dim>32</dim>
					<dim>3</dim>
					<dim>3</dim>
				</port>
			</output>
		</layer>
		<layer id="74" name="model.2.m.0.cv2.conv.weight" type="Convert" version="opset1">
			<data destination_type="f32"/>
			<rt_info>
				<attribute name="decompression" version="0"/>
				<attribute name="fused_names" value="model.2.m.0.cv2.conv.weight" version="0"/>
			</rt_info>
			<input>
				<port id="0" precision="FP16">
					<dim>32</dim>
					<dim>32</dim>
					<dim>3</dim>
					<dim>3</dim>
				</port>
			</input>
			<output>
				<port id="1" names="model.2.m.0.cv2.conv.weight" precision="FP32">
					<dim>32</dim>
					<dim>32</dim>
					<dim>3</dim>
					<dim>3</dim>
				</port>
			</output>
		</layer>
		<layer id="75" name="Convolution_412" type="Convolution" version="opset1">
			<data auto_pad="explicit" dilations="1, 1" pads_begin="1, 1" pads_end="1, 1" strides="1, 1"/>
			<rt_info>
				<attribute name="fused_names" value="Convolution_412" version="0"/>
			</rt_info>
			<input>
				<port id="0" precision="FP32">
					<dim>1</dim>
					<dim>32</dim>
					<dim>160</dim>
					<dim>160</dim>
				</port>
				<port id="1" precision="FP32">
					<dim>32</dim>
					<dim>32</dim>
					<dim>3</dim>
					<dim>3</dim>
				</port>
			</input>
			<output>
				<port id="2" precision="FP32">
					<dim>1</dim>
					<dim>32</dim>
					<dim>160</dim>
					<dim>160</dim>
				</port>
			</output>
		</layer>
		<layer id="76" name="Reshape_432_compressed" type="Const" version="opset1">
			<data element_type="f16" offset="68900" shape="1, 32, 1, 1" size="64"/>
			<output>
				<port id="0" precision="FP16">
					<dim>1</dim>
					<dim>32</dim>
					<dim>1</dim>
					<dim>1</dim>
				</port>
			</output>
		</layer>
		<layer id="77" name="Reshape_432" type="Convert" version="opset1">
			<data destination_type="f32"/>
			<rt_info>
				<attribute name="decompression" version="0"/>
			</rt_info>
			<input>
				<port id="0" precision="FP16">
					<dim>1</dim>
					<dim>32</dim>
					<dim>1</dim>
					<dim>1</dim>
				</port>
			</input>
			<output>
				<port id="1" precision="FP32">
					<dim>1</dim>
					<dim>32</dim>
					<dim>1</dim>
					<dim>1</dim>
				</port>
			</output>
		</layer>
		<layer id="78" name="215" type="Add" version="opset1">
			<data auto_broadcast="numpy"/>
			<rt_info>
				<attribute name="fused_names" value="215, Concat_431, Reshape_432" version="0"/>
			</rt_info>
			<input>
				<port id="0" precision="FP32">
					<dim>1</dim>
					<dim>32</dim>
					<dim>160</dim>
					<dim>160</dim>
				</port>
				<port id="1" precision="FP32">
					<dim>1</dim>
					<dim>32</dim>
					<dim>1</dim>
					<dim>1</dim>
				</port>
			</input>
			<output>
				<port id="2" names="215" precision="FP32">
					<dim>1</dim>
					<dim>32</dim>
					<dim>160</dim>
					<dim>160</dim>
				</port>
			</output>
		</layer>
		<layer id="79" name="Constant_460_compressed" type="Const" version="opset1">
			<data element_type="f16" offset="7202" shape="1" size="2"/>
			<output>
				<port id="0" precision="FP16">
					<dim>1</dim>
				</port>
			</output>
		</layer>
		<layer id="80" name="Constant_460" type="Convert" version="opset1">
			<data destination_type="f32"/>
			<rt_info>
				<attribute name="decompression" version="0"/>
				<attribute name="fused_names" value="Constant_460" version="0"/>
			</rt_info>
			<input>
				<port id="0" precision="FP16">
					<dim>1</dim>
				</port>
			</input>
			<output>
				<port id="1" precision="FP32">
					<dim>1</dim>
				</port>
			</output>
		</layer>
		<layer id="81" name="216" type="PReLU" version="opset1">
			<rt_info>
				<attribute name="fused_names" value="216" version="0"/>
			</rt_info>
			<input>
				<port id="0" precision="FP32">
					<dim>1</dim>
					<dim>32</dim>
					<dim>160</dim>
					<dim>160</dim>
				</port>
				<port id="1" precision="FP32">
					<dim>1</dim>
				</port>
			</input>
			<output>
				<port id="2" names="216" precision="FP32">
					<dim>1</dim>
					<dim>32</dim>
					<dim>160</dim>
					<dim>160</dim>
				</port>
			</output>
		</layer>
		<layer id="82" name="217" type="Add" version="opset1">
			<data auto_broadcast="numpy"/>
			<rt_info>
				<attribute name="fused_names" value="217" version="0"/>
			</rt_info>
			<input>
				<port id="0" precision="FP32">
					<dim>1</dim>
					<dim>32</dim>
					<dim>160</dim>
					<dim>160</dim>
				</port>
				<port id="1" precision="FP32">
					<dim>1</dim>
					<dim>32</dim>
					<dim>160</dim>
					<dim>160</dim>
				</port>
			</input>
			<output>
				<port id="2" names="217" precision="FP32">
					<dim>1</dim>
					<dim>32</dim>
					<dim>160</dim>
					<dim>160</dim>
				</port>
			</output>
		</layer>
		<layer id="83" name="model.2.cv3.weight_compressed" type="Const" version="opset1">
			<data element_type="f16" offset="68964" shape="32, 32, 1, 1" size="2048"/>
			<output>
				<port id="0" precision="FP16">
					<dim>32</dim>
					<dim>32</dim>
					<dim>1</dim>
					<dim>1</dim>
				</port>
			</output>
		</layer>
		<layer id="84" name="model.2.cv3.weight" type="Convert" version="opset1">
			<data destination_type="f32"/>
			<rt_info>
				<attribute name="decompression" version="0"/>
				<attribute name="fused_names" value="model.2.cv3.weight" version="0"/>
			</rt_info>
			<input>
				<port id="0" precision="FP16">
					<dim>32</dim>
					<dim>32</dim>
					<dim>1</dim>
					<dim>1</dim>
				</port>
			</input>
			<output>
				<port id="1" names="model.2.cv3.weight" precision="FP32">
					<dim>32</dim>
					<dim>32</dim>
					<dim>1</dim>
					<dim>1</dim>
				</port>
			</output>
		</layer>
		<layer id="85" name="218" type="Convolution" version="opset1">
			<data auto_pad="explicit" dilations="1, 1" pads_begin="0, 0" pads_end="0, 0" strides="1, 1"/>
			<rt_info>
				<attribute name="fused_names" value="218" version="0"/>
			</rt_info>
			<input>
				<port id="0" precision="FP32">
					<dim>1</dim>
					<dim>32</dim>
					<dim>160</dim>
					<dim>160</dim>
				</port>
				<port id="1" precision="FP32">
					<dim>32</dim>
					<dim>32</dim>
					<dim>1</dim>
					<dim>1</dim>
				</port>
			</input>
			<output>
				<port id="2" names="218" precision="FP32">
					<dim>1</dim>
					<dim>32</dim>
					<dim>160</dim>
					<dim>160</dim>
				</port>
			</output>
		</layer>
		<layer id="86" name="model.2.cv2.weight_compressed" type="Const" version="opset1">
			<data element_type="f16" offset="71012" shape="32, 64, 1, 1" size="4096"/>
			<output>
				<port id="0" precision="FP16">
					<dim>32</dim>
					<dim>64</dim>
					<dim>1</dim>
					<dim>1</dim>
				</port>
			</output>
		</layer>
		<layer id="87" name="model.2.cv2.weight" type="Convert" version="opset1">
			<data destination_type="f32"/>
			<rt_info>
				<attribute name="decompression" version="0"/>
				<attribute name="fused_names" value="model.2.cv2.weight" version="0"/>
			</rt_info>
			<input>
				<port id="0" precision="FP16">
					<dim>32</dim>
					<dim>64</dim>
					<dim>1</dim>
					<dim>1</dim>
				</port>
			</input>
			<output>
				<port id="1" names="model.2.cv2.weight" precision="FP32">
					<dim>32</dim>
					<dim>64</dim>
					<dim>1</dim>
					<dim>1</dim>
				</port>
			</output>
		</layer>
		<layer id="88" name="219" type="Convolution" version="opset1">
			<data auto_pad="explicit" dilations="1, 1" pads_begin="0, 0" pads_end="0, 0" strides="1, 1"/>
			<rt_info>
				<attribute name="fused_names" value="219" version="0"/>
			</rt_info>
			<input>
				<port id="0" precision="FP32">
					<dim>1</dim>
					<dim>64</dim>
					<dim>160</dim>
					<dim>160</dim>
				</port>
				<port id="1" precision="FP32">
					<dim>32</dim>
					<dim>64</dim>
					<dim>1</dim>
					<dim>1</dim>
				</port>
			</input>
			<output>
				<port id="2" names="219" precision="FP32">
					<dim>1</dim>
					<dim>32</dim>
					<dim>160</dim>
					<dim>160</dim>
				</port>
			</output>
		</layer>
		<layer id="89" name="220" type="Concat" version="opset1">
			<data axis="1"/>
			<rt_info>
				<attribute name="fused_names" value="220" version="0"/>
			</rt_info>
			<input>
				<port id="0" precision="FP32">
					<dim>1</dim>
					<dim>32</dim>
					<dim>160</dim>
					<dim>160</dim>
				</port>
				<port id="1" precision="FP32">
					<dim>1</dim>
					<dim>32</dim>
					<dim>160</dim>
					<dim>160</dim>
				</port>
			</input>
			<output>
				<port id="2" names="220" precision="FP32">
					<dim>1</dim>
					<dim>64</dim>
					<dim>160</dim>
					<dim>160</dim>
				</port>
			</output>
		</layer>
		<layer id="90" name="Constant_9626_compressed" type="Const" version="opset1">
			<data element_type="f16" offset="75108" shape="1, 64, 1, 1" size="128"/>
			<output>
				<port id="0" precision="FP16">
					<dim>1</dim>
					<dim>64</dim>
					<dim>1</dim>
					<dim>1</dim>
				</port>
			</output>
		</layer>
		<layer id="91" name="Constant_9626" type="Convert" version="opset1">
			<data destination_type="f32"/>
			<rt_info>
				<attribute name="decompression" version="0"/>
				<attribute name="fused_names" value="221, model.2.bn.bias, model.2.bn.running_mean, model.2.bn.running_var, model.2.bn.weight" version="0"/>
			</rt_info>
			<input>
				<port id="0" precision="FP16">
					<dim>1</dim>
					<dim>64</dim>
					<dim>1</dim>
					<dim>1</dim>
				</port>
			</input>
			<output>
				<port id="1" precision="FP32">
					<dim>1</dim>
					<dim>64</dim>
					<dim>1</dim>
					<dim>1</dim>
				</port>
			</output>
		</layer>
		<layer id="92" name="Multiply_10512" type="Multiply" version="opset1">
			<data auto_broadcast="numpy"/>
			<rt_info>
				<attribute name="fused_names" value="221, model.2.bn.bias, model.2.bn.running_mean, model.2.bn.running_var, model.2.bn.weight" version="0"/>
			</rt_info>
			<input>
				<port id="0" precision="FP32">
					<dim>1</dim>
					<dim>64</dim>
					<dim>160</dim>
					<dim>160</dim>
				</port>
				<port id="1" precision="FP32">
					<dim>1</dim>
					<dim>64</dim>
					<dim>1</dim>
					<dim>1</dim>
				</port>
			</input>
			<output>
				<port id="2" precision="FP32">
					<dim>1</dim>
					<dim>64</dim>
					<dim>160</dim>
					<dim>160</dim>
				</port>
			</output>
		</layer>
		<layer id="93" name="Constant_10517_compressed" type="Const" version="opset1">
			<data element_type="f16" offset="75236" shape="1, 64, 1, 1" size="128"/>
			<output>
				<port id="0" precision="FP16">
					<dim>1</dim>
					<dim>64</dim>
					<dim>1</dim>
					<dim>1</dim>
				</port>
			</output>
		</layer>
		<layer id="94" name="Constant_10517" type="Convert" version="opset1">
			<data destination_type="f32"/>
			<rt_info>
				<attribute name="decompression" version="0"/>
			</rt_info>
			<input>
				<port id="0" precision="FP16">
					<dim>1</dim>
					<dim>64</dim>
					<dim>1</dim>
					<dim>1</dim>
				</port>
			</input>
			<output>
				<port id="1" precision="FP32">
					<dim>1</dim>
					<dim>64</dim>
					<dim>1</dim>
					<dim>1</dim>
				</port>
			</output>
		</layer>
		<layer id="95" name="221" type="Add" version="opset1">
			<data auto_broadcast="numpy"/>
			<rt_info>
				<attribute name="fused_names" value="221, model.2.bn.bias, model.2.bn.running_mean, model.2.bn.running_var, model.2.bn.weight" version="0"/>
			</rt_info>
			<input>
				<port id="0" precision="FP32">
					<dim>1</dim>
					<dim>64</dim>
					<dim>160</dim>
					<dim>160</dim>
				</port>
				<port id="1" precision="FP32">
					<dim>1</dim>
					<dim>64</dim>
					<dim>1</dim>
					<dim>1</dim>
				</port>
			</input>
			<output>
				<port id="2" names="221" precision="FP32">
					<dim>1</dim>
					<dim>64</dim>
					<dim>160</dim>
					<dim>160</dim>
				</port>
			</output>
		</layer>
		<layer id="96" name="Constant_469_compressed" type="Const" version="opset1">
			<data element_type="f16" offset="7202" shape="1" size="2"/>
			<output>
				<port id="0" precision="FP16">
					<dim>1</dim>
				</port>
			</output>
		</layer>
		<layer id="97" name="Constant_469" type="Convert" version="opset1">
			<data destination_type="f32"/>
			<rt_info>
				<attribute name="decompression" version="0"/>
				<attribute name="fused_names" value="Constant_469" version="0"/>
			</rt_info>
			<input>
				<port id="0" precision="FP16">
					<dim>1</dim>
				</port>
			</input>
			<output>
				<port id="1" precision="FP32">
					<dim>1</dim>
				</port>
			</output>
		</layer>
		<layer id="98" name="222" type="PReLU" version="opset1">
			<rt_info>
				<attribute name="fused_names" value="222" version="0"/>
			</rt_info>
			<input>
				<port id="0" precision="FP32">
					<dim>1</dim>
					<dim>64</dim>
					<dim>160</dim>
					<dim>160</dim>
				</port>
				<port id="1" precision="FP32">
					<dim>1</dim>
				</port>
			</input>
			<output>
				<port id="2" names="222" precision="FP32">
					<dim>1</dim>
					<dim>64</dim>
					<dim>160</dim>
					<dim>160</dim>
				</port>
			</output>
		</layer>
		<layer id="99" name="model.2.cv4.conv.weight_compressed" type="Const" version="opset1">
			<data element_type="f16" offset="75364" shape="64, 64, 1, 1" size="8192"/>
			<output>
				<port id="0" precision="FP16">
					<dim>64</dim>
					<dim>64</dim>
					<dim>1</dim>
					<dim>1</dim>
				</port>
			</output>
		</layer>
		<layer id="100" name="model.2.cv4.conv.weight" type="Convert" version="opset1">
			<data destination_type="f32"/>
			<rt_info>
				<attribute name="decompression" version="0"/>
				<attribute name="fused_names" value="model.2.cv4.conv.weight" version="0"/>
			</rt_info>
			<input>
				<port id="0" precision="FP16">
					<dim>64</dim>
					<dim>64</dim>
					<dim>1</dim>
					<dim>1</dim>
				</port>
			</input>
			<output>
				<port id="1" names="model.2.cv4.conv.weight" precision="FP32">
					<dim>64</dim>
					<dim>64</dim>
					<dim>1</dim>
					<dim>1</dim>
				</port>
			</output>
		</layer>
		<layer id="101" name="Convolution_471" type="Convolution" version="opset1">
			<data auto_pad="explicit" dilations="1, 1" pads_begin="0, 0" pads_end="0, 0" strides="1, 1"/>
			<rt_info>
				<attribute name="fused_names" value="Convolution_471" version="0"/>
			</rt_info>
			<input>
				<port id="0" precision="FP32">
					<dim>1</dim>
					<dim>64</dim>
					<dim>160</dim>
					<dim>160</dim>
				</port>
				<port id="1" precision="FP32">
					<dim>64</dim>
					<dim>64</dim>
					<dim>1</dim>
					<dim>1</dim>
				</port>
			</input>
			<output>
				<port id="2" precision="FP32">
					<dim>1</dim>
					<dim>64</dim>
					<dim>160</dim>
					<dim>160</dim>
				</port>
			</output>
		</layer>
		<layer id="102" name="Reshape_491_compressed" type="Const" version="opset1">
			<data element_type="f16" offset="83556" shape="1, 64, 1, 1" size="128"/>
			<output>
				<port id="0" precision="FP16">
					<dim>1</dim>
					<dim>64</dim>
					<dim>1</dim>
					<dim>1</dim>
				</port>
			</output>
		</layer>
		<layer id="103" name="Reshape_491" type="Convert" version="opset1">
			<data destination_type="f32"/>
			<rt_info>
				<attribute name="decompression" version="0"/>
			</rt_info>
			<input>
				<port id="0" precision="FP16">
					<dim>1</dim>
					<dim>64</dim>
					<dim>1</dim>
					<dim>1</dim>
				</port>
			</input>
			<output>
				<port id="1" precision="FP32">
					<dim>1</dim>
					<dim>64</dim>
					<dim>1</dim>
					<dim>1</dim>
				</port>
			</output>
		</layer>
		<layer id="104" name="223" type="Add" version="opset1">
			<data auto_broadcast="numpy"/>
			<rt_info>
				<attribute name="fused_names" value="223, Concat_490, Reshape_491" version="0"/>
			</rt_info>
			<input>
				<port id="0" precision="FP32">
					<dim>1</dim>
					<dim>64</dim>
					<dim>160</dim>
					<dim>160</dim>
				</port>
				<port id="1" precision="FP32">
					<dim>1</dim>
					<dim>64</dim>
					<dim>1</dim>
					<dim>1</dim>
				</port>
			</input>
			<output>
				<port id="2" names="223" precision="FP32">
					<dim>1</dim>
					<dim>64</dim>
					<dim>160</dim>
					<dim>160</dim>
				</port>
			</output>
		</layer>
		<layer id="105" name="Constant_519_compressed" type="Const" version="opset1">
			<data element_type="f16" offset="7202" shape="1" size="2"/>
			<output>
				<port id="0" precision="FP16">
					<dim>1</dim>
				</port>
			</output>
		</layer>
		<layer id="106" name="Constant_519" type="Convert" version="opset1">
			<data destination_type="f32"/>
			<rt_info>
				<attribute name="decompression" version="0"/>
				<attribute name="fused_names" value="Constant_519" version="0"/>
			</rt_info>
			<input>
				<port id="0" precision="FP16">
					<dim>1</dim>
				</port>
			</input>
			<output>
				<port id="1" precision="FP32">
					<dim>1</dim>
				</port>
			</output>
		</layer>
		<layer id="107" name="224" type="PReLU" version="opset1">
			<rt_info>
				<attribute name="fused_names" value="224" version="0"/>
			</rt_info>
			<input>
				<port id="0" precision="FP32">
					<dim>1</dim>
					<dim>64</dim>
					<dim>160</dim>
					<dim>160</dim>
				</port>
				<port id="1" precision="FP32">
					<dim>1</dim>
				</port>
			</input>
			<output>
				<port id="2" names="224" precision="FP32">
					<dim>1</dim>
					<dim>64</dim>
					<dim>160</dim>
					<dim>160</dim>
				</port>
			</output>
		</layer>
		<layer id="108" name="model.3.conv.weight_compressed" type="Const" version="opset1">
			<data element_type="f16" offset="83684" shape="128, 64, 3, 3" size="147456"/>
			<output>
				<port id="0" precision="FP16">
					<dim>128</dim>
					<dim>64</dim>
					<dim>3</dim>
					<dim>3</dim>
				</port>
			</output>
		</layer>
		<layer id="109" name="model.3.conv.weight" type="Convert" version="opset1">
			<data destination_type="f32"/>
			<rt_info>
				<attribute name="decompression" version="0"/>
				<attribute name="fused_names" value="model.3.conv.weight" version="0"/>
			</rt_info>
			<input>
				<port id="0" precision="FP16">
					<dim>128</dim>
					<dim>64</dim>
					<dim>3</dim>
					<dim>3</dim>
				</port>
			</input>
			<output>
				<port id="1" names="model.3.conv.weight" precision="FP32">
					<dim>128</dim>
					<dim>64</dim>
					<dim>3</dim>
					<dim>3</dim>
				</port>
			</output>
		</layer>
		<layer id="110" name="Convolution_521" type="Convolution" version="opset1">
			<data auto_pad="explicit" dilations="1, 1" pads_begin="1, 1" pads_end="1, 1" strides="2, 2"/>
			<rt_info>
				<attribute name="fused_names" value="Convolution_521" version="0"/>
			</rt_info>
			<input>
				<port id="0" precision="FP32">
					<dim>1</dim>
					<dim>64</dim>
					<dim>160</dim>
					<dim>160</dim>
				</port>
				<port id="1" precision="FP32">
					<dim>128</dim>
					<dim>64</dim>
					<dim>3</dim>
					<dim>3</dim>
				</port>
			</input>
			<output>
				<port id="2" precision="FP32">
					<dim>1</dim>
					<dim>128</dim>
					<dim>80</dim>
					<dim>80</dim>
				</port>
			</output>
		</layer>
		<layer id="111" name="Reshape_541_compressed" type="Const" version="opset1">
			<data element_type="f16" offset="231140" shape="1, 128, 1, 1" size="256"/>
			<output>
				<port id="0" precision="FP16">
					<dim>1</dim>
					<dim>128</dim>
					<dim>1</dim>
					<dim>1</dim>
				</port>
			</output>
		</layer>
		<layer id="112" name="Reshape_541" type="Convert" version="opset1">
			<data destination_type="f32"/>
			<rt_info>
				<attribute name="decompression" version="0"/>
			</rt_info>
			<input>
				<port id="0" precision="FP16">
					<dim>1</dim>
					<dim>128</dim>
					<dim>1</dim>
					<dim>1</dim>
				</port>
			</input>
			<output>
				<port id="1" precision="FP32">
					<dim>1</dim>
					<dim>128</dim>
					<dim>1</dim>
					<dim>1</dim>
				</port>
			</output>
		</layer>
		<layer id="113" name="225" type="Add" version="opset1">
			<data auto_broadcast="numpy"/>
			<rt_info>
				<attribute name="fused_names" value="225, Concat_540, Reshape_541" version="0"/>
			</rt_info>
			<input>
				<port id="0" precision="FP32">
					<dim>1</dim>
					<dim>128</dim>
					<dim>80</dim>
					<dim>80</dim>
				</port>
				<port id="1" precision="FP32">
					<dim>1</dim>
					<dim>128</dim>
					<dim>1</dim>
					<dim>1</dim>
				</port>
			</input>
			<output>
				<port id="2" names="225" precision="FP32">
					<dim>1</dim>
					<dim>128</dim>
					<dim>80</dim>
					<dim>80</dim>
				</port>
			</output>
		</layer>
		<layer id="114" name="Constant_569_compressed" type="Const" version="opset1">
			<data element_type="f16" offset="7202" shape="1" size="2"/>
			<output>
				<port id="0" precision="FP16">
					<dim>1</dim>
				</port>
			</output>
		</layer>
		<layer id="115" name="Constant_569" type="Convert" version="opset1">
			<data destination_type="f32"/>
			<rt_info>
				<attribute name="decompression" version="0"/>
				<attribute name="fused_names" value="Constant_569" version="0"/>
			</rt_info>
			<input>
				<port id="0" precision="FP16">
					<dim>1</dim>
				</port>
			</input>
			<output>
				<port id="1" precision="FP32">
					<dim>1</dim>
				</port>
			</output>
		</layer>
		<layer id="116" name="226" type="PReLU" version="opset1">
			<rt_info>
				<attribute name="fused_names" value="226" version="0"/>
			</rt_info>
			<input>
				<port id="0" precision="FP32">
					<dim>1</dim>
					<dim>128</dim>
					<dim>80</dim>
					<dim>80</dim>
				</port>
				<port id="1" precision="FP32">
					<dim>1</dim>
				</port>
			</input>
			<output>
				<port id="2" names="226" precision="FP32">
					<dim>1</dim>
					<dim>128</dim>
					<dim>80</dim>
					<dim>80</dim>
				</port>
			</output>
		</layer>
		<layer id="117" name="model.4.cv1.conv.weight_compressed" type="Const" version="opset1">
			<data element_type="f16" offset="231396" shape="64, 128, 1, 1" size="16384"/>
			<output>
				<port id="0" precision="FP16">
					<dim>64</dim>
					<dim>128</dim>
					<dim>1</dim>
					<dim>1</dim>
				</port>
			</output>
		</layer>
		<layer id="118" name="model.4.cv1.conv.weight" type="Convert" version="opset1">
			<data destination_type="f32"/>
			<rt_info>
				<attribute name="decompression" version="0"/>
				<attribute name="fused_names" value="model.4.cv1.conv.weight" version="0"/>
			</rt_info>
			<input>
				<port id="0" precision="FP16">
					<dim>64</dim>
					<dim>128</dim>
					<dim>1</dim>
					<dim>1</dim>
				</port>
			</input>
			<output>
				<port id="1" names="model.4.cv1.conv.weight" precision="FP32">
					<dim>64</dim>
					<dim>128</dim>
					<dim>1</dim>
					<dim>1</dim>
				</port>
			</output>
		</layer>
		<layer id="119" name="Convolution_571" type="Convolution" version="opset1">
			<data auto_pad="explicit" dilations="1, 1" pads_begin="0, 0" pads_end="0, 0" strides="1, 1"/>
			<rt_info>
				<attribute name="fused_names" value="Convolution_571" version="0"/>
			</rt_info>
			<input>
				<port id="0" precision="FP32">
					<dim>1</dim>
					<dim>128</dim>
					<dim>80</dim>
					<dim>80</dim>
				</port>
				<port id="1" precision="FP32">
					<dim>64</dim>
					<dim>128</dim>
					<dim>1</dim>
					<dim>1</dim>
				</port>
			</input>
			<output>
				<port id="2" precision="FP32">
					<dim>1</dim>
					<dim>64</dim>
					<dim>80</dim>
					<dim>80</dim>
				</port>
			</output>
		</layer>
		<layer id="120" name="Reshape_591_compressed" type="Const" version="opset1">
			<data element_type="f16" offset="247780" shape="1, 64, 1, 1" size="128"/>
			<output>
				<port id="0" precision="FP16">
					<dim>1</dim>
					<dim>64</dim>
					<dim>1</dim>
					<dim>1</dim>
				</port>
			</output>
		</layer>
		<layer id="121" name="Reshape_591" type="Convert" version="opset1">
			<data destination_type="f32"/>
			<rt_info>
				<attribute name="decompression" version="0"/>
			</rt_info>
			<input>
				<port id="0" precision="FP16">
					<dim>1</dim>
					<dim>64</dim>
					<dim>1</dim>
					<dim>1</dim>
				</port>
			</input>
			<output>
				<port id="1" precision="FP32">
					<dim>1</dim>
					<dim>64</dim>
					<dim>1</dim>
					<dim>1</dim>
				</port>
			</output>
		</layer>
		<layer id="122" name="227" type="Add" version="opset1">
			<data auto_broadcast="numpy"/>
			<rt_info>
				<attribute name="fused_names" value="227, Concat_590, Reshape_591" version="0"/>
			</rt_info>
			<input>
				<port id="0" precision="FP32">
					<dim>1</dim>
					<dim>64</dim>
					<dim>80</dim>
					<dim>80</dim>
				</port>
				<port id="1" precision="FP32">
					<dim>1</dim>
					<dim>64</dim>
					<dim>1</dim>
					<dim>1</dim>
				</port>
			</input>
			<output>
				<port id="2" names="227" precision="FP32">
					<dim>1</dim>
					<dim>64</dim>
					<dim>80</dim>
					<dim>80</dim>
				</port>
			</output>
		</layer>
		<layer id="123" name="Constant_619_compressed" type="Const" version="opset1">
			<data element_type="f16" offset="7202" shape="1" size="2"/>
			<output>
				<port id="0" precision="FP16">
					<dim>1</dim>
				</port>
			</output>
		</layer>
		<layer id="124" name="Constant_619" type="Convert" version="opset1">
			<data destination_type="f32"/>
			<rt_info>
				<attribute name="decompression" version="0"/>
				<attribute name="fused_names" value="Constant_619" version="0"/>
			</rt_info>
			<input>
				<port id="0" precision="FP16">
					<dim>1</dim>
				</port>
			</input>
			<output>
				<port id="1" precision="FP32">
					<dim>1</dim>
				</port>
			</output>
		</layer>
		<layer id="125" name="228" type="PReLU" version="opset1">
			<rt_info>
				<attribute name="fused_names" value="228" version="0"/>
			</rt_info>
			<input>
				<port id="0" precision="FP32">
					<dim>1</dim>
					<dim>64</dim>
					<dim>80</dim>
					<dim>80</dim>
				</port>
				<port id="1" precision="FP32">
					<dim>1</dim>
				</port>
			</input>
			<output>
				<port id="2" names="228" precision="FP32">
					<dim>1</dim>
					<dim>64</dim>
					<dim>80</dim>
					<dim>80</dim>
				</port>
			</output>
		</layer>
		<layer id="126" name="model.4.m.0.cv1.conv.weight_compressed" type="Const" version="opset1">
			<data element_type="f16" offset="247908" shape="64, 64, 1, 1" size="8192"/>
			<output>
				<port id="0" precision="FP16">
					<dim>64</dim>
					<dim>64</dim>
					<dim>1</dim>
					<dim>1</dim>
				</port>
			</output>
		</layer>
		<layer id="127" name="model.4.m.0.cv1.conv.weight" type="Convert" version="opset1">
			<data destination_type="f32"/>
			<rt_info>
				<attribute name="decompression" version="0"/>
				<attribute name="fused_names" value="model.4.m.0.cv1.conv.weight" version="0"/>
			</rt_info>
			<input>
				<port id="0" precision="FP16">
					<dim>64</dim>
					<dim>64</dim>
					<dim>1</dim>
					<dim>1</dim>
				</port>
			</input>
			<output>
				<port id="1" names="model.4.m.0.cv1.conv.weight" precision="FP32">
					<dim>64</dim>
					<dim>64</dim>
					<dim>1</dim>
					<dim>1</dim>
				</port>
			</output>
		</layer>
		<layer id="128" name="Convolution_621" type="Convolution" version="opset1">
			<data auto_pad="explicit" dilations="1, 1" pads_begin="0, 0" pads_end="0, 0" strides="1, 1"/>
			<rt_info>
				<attribute name="fused_names" value="Convolution_621" version="0"/>
			</rt_info>
			<input>
				<port id="0" precision="FP32">
					<dim>1</dim>
					<dim>64</dim>
					<dim>80</dim>
					<dim>80</dim>
				</port>
				<port id="1" precision="FP32">
					<dim>64</dim>
					<dim>64</dim>
					<dim>1</dim>
					<dim>1</dim>
				</port>
			</input>
			<output>
				<port id="2" precision="FP32">
					<dim>1</dim>
					<dim>64</dim>
					<dim>80</dim>
					<dim>80</dim>
				</port>
			</output>
		</layer>
		<layer id="129" name="Reshape_641_compressed" type="Const" version="opset1">
			<data element_type="f16" offset="256100" shape="1, 64, 1, 1" size="128"/>
			<output>
				<port id="0" precision="FP16">
					<dim>1</dim>
					<dim>64</dim>
					<dim>1</dim>
					<dim>1</dim>
				</port>
			</output>
		</layer>
		<layer id="130" name="Reshape_641" type="Convert" version="opset1">
			<data destination_type="f32"/>
			<rt_info>
				<attribute name="decompression" version="0"/>
			</rt_info>
			<input>
				<port id="0" precision="FP16">
					<dim>1</dim>
					<dim>64</dim>
					<dim>1</dim>
					<dim>1</dim>
				</port>
			</input>
			<output>
				<port id="1" precision="FP32">
					<dim>1</dim>
					<dim>64</dim>
					<dim>1</dim>
					<dim>1</dim>
				</port>
			</output>
		</layer>
		<layer id="131" name="229" type="Add" version="opset1">
			<data auto_broadcast="numpy"/>
			<rt_info>
				<attribute name="fused_names" value="229, Concat_640, Reshape_641" version="0"/>
			</rt_info>
			<input>
				<port id="0" precision="FP32">
					<dim>1</dim>
					<dim>64</dim>
					<dim>80</dim>
					<dim>80</dim>
				</port>
				<port id="1" precision="FP32">
					<dim>1</dim>
					<dim>64</dim>
					<dim>1</dim>
					<dim>1</dim>
				</port>
			</input>
			<output>
				<port id="2" names="229" precision="FP32">
					<dim>1</dim>
					<dim>64</dim>
					<dim>80</dim>
					<dim>80</dim>
				</port>
			</output>
		</layer>
		<layer id="132" name="Constant_669_compressed" type="Const" version="opset1">
			<data element_type="f16" offset="7202" shape="1" size="2"/>
			<output>
				<port id="0" precision="FP16">
					<dim>1</dim>
				</port>
			</output>
		</layer>
		<layer id="133" name="Constant_669" type="Convert" version="opset1">
			<data destination_type="f32"/>
			<rt_info>
				<attribute name="decompression" version="0"/>
				<attribute name="fused_names" value="Constant_669" version="0"/>
			</rt_info>
			<input>
				<port id="0" precision="FP16">
					<dim>1</dim>
				</port>
			</input>
			<output>
				<port id="1" precision="FP32">
					<dim>1</dim>
				</port>
			</output>
		</layer>
		<layer id="134" name="230" type="PReLU" version="opset1">
			<rt_info>
				<attribute name="fused_names" value="230" version="0"/>
			</rt_info>
			<input>
				<port id="0" precision="FP32">
					<dim>1</dim>
					<dim>64</dim>
					<dim>80</dim>
					<dim>80</dim>
				</port>
				<port id="1" precision="FP32">
					<dim>1</dim>
				</port>
			</input>
			<output>
				<port id="2" names="230" precision="FP32">
					<dim>1</dim>
					<dim>64</dim>
					<dim>80</dim>
					<dim>80</dim>
				</port>
			</output>
		</layer>
		<layer id="135" name="model.4.m.0.cv2.conv.weight_compressed" type="Const" version="opset1">
			<data element_type="f16" offset="256228" shape="64, 64, 3, 3" size="73728"/>
			<output>
				<port id="0" precision="FP16">
					<dim>64</dim>
					<dim>64</dim>
					<dim>3</dim>
					<dim>3</dim>
				</port>
			</output>
		</layer>
		<layer id="136" name="model.4.m.0.cv2.conv.weight" type="Convert" version="opset1">
			<data destination_type="f32"/>
			<rt_info>
				<attribute name="decompression" version="0"/>
				<attribute name="fused_names" value="model.4.m.0.cv2.conv.weight" version="0"/>
			</rt_info>
			<input>
				<port id="0" precision="FP16">
					<dim>64</dim>
					<dim>64</dim>
					<dim>3</dim>
					<dim>3</dim>
				</port>
			</input>
			<output>
				<port id="1" names="model.4.m.0.cv2.conv.weight" precision="FP32">
					<dim>64</dim>
					<dim>64</dim>
					<dim>3</dim>
					<dim>3</dim>
				</port>
			</output>
		</layer>
		<layer id="137" name="Convolution_671" type="Convolution" version="opset1">
			<data auto_pad="explicit" dilations="1, 1" pads_begin="1, 1" pads_end="1, 1" strides="1, 1"/>
			<rt_info>
				<attribute name="fused_names" value="Convolution_671" version="0"/>
			</rt_info>
			<input>
				<port id="0" precision="FP32">
					<dim>1</dim>
					<dim>64</dim>
					<dim>80</dim>
					<dim>80</dim>
				</port>
				<port id="1" precision="FP32">
					<dim>64</dim>
					<dim>64</dim>
					<dim>3</dim>
					<dim>3</dim>
				</port>
			</input>
			<output>
				<port id="2" precision="FP32">
					<dim>1</dim>
					<dim>64</dim>
					<dim>80</dim>
					<dim>80</dim>
				</port>
			</output>
		</layer>
		<layer id="138" name="Reshape_691_compressed" type="Const" version="opset1">
			<data element_type="f16" offset="329956" shape="1, 64, 1, 1" size="128"/>
			<output>
				<port id="0" precision="FP16">
					<dim>1</dim>
					<dim>64</dim>
					<dim>1</dim>
					<dim>1</dim>
				</port>
			</output>
		</layer>
		<layer id="139" name="Reshape_691" type="Convert" version="opset1">
			<data destination_type="f32"/>
			<rt_info>
				<attribute name="decompression" version="0"/>
			</rt_info>
			<input>
				<port id="0" precision="FP16">
					<dim>1</dim>
					<dim>64</dim>
					<dim>1</dim>
					<dim>1</dim>
				</port>
			</input>
			<output>
				<port id="1" precision="FP32">
					<dim>1</dim>
					<dim>64</dim>
					<dim>1</dim>
					<dim>1</dim>
				</port>
			</output>
		</layer>
		<layer id="140" name="231" type="Add" version="opset1">
			<data auto_broadcast="numpy"/>
			<rt_info>
				<attribute name="fused_names" value="231, Concat_690, Reshape_691" version="0"/>
			</rt_info>
			<input>
				<port id="0" precision="FP32">
					<dim>1</dim>
					<dim>64</dim>
					<dim>80</dim>
					<dim>80</dim>
				</port>
				<port id="1" precision="FP32">
					<dim>1</dim>
					<dim>64</dim>
					<dim>1</dim>
					<dim>1</dim>
				</port>
			</input>
			<output>
				<port id="2" names="231" precision="FP32">
					<dim>1</dim>
					<dim>64</dim>
					<dim>80</dim>
					<dim>80</dim>
				</port>
			</output>
		</layer>
		<layer id="141" name="Constant_719_compressed" type="Const" version="opset1">
			<data element_type="f16" offset="7202" shape="1" size="2"/>
			<output>
				<port id="0" precision="FP16">
					<dim>1</dim>
				</port>
			</output>
		</layer>
		<layer id="142" name="Constant_719" type="Convert" version="opset1">
			<data destination_type="f32"/>
			<rt_info>
				<attribute name="decompression" version="0"/>
				<attribute name="fused_names" value="Constant_719" version="0"/>
			</rt_info>
			<input>
				<port id="0" precision="FP16">
					<dim>1</dim>
				</port>
			</input>
			<output>
				<port id="1" precision="FP32">
					<dim>1</dim>
				</port>
			</output>
		</layer>
		<layer id="143" name="232" type="PReLU" version="opset1">
			<rt_info>
				<attribute name="fused_names" value="232" version="0"/>
			</rt_info>
			<input>
				<port id="0" precision="FP32">
					<dim>1</dim>
					<dim>64</dim>
					<dim>80</dim>
					<dim>80</dim>
				</port>
				<port id="1" precision="FP32">
					<dim>1</dim>
				</port>
			</input>
			<output>
				<port id="2" names="232" precision="FP32">
					<dim>1</dim>
					<dim>64</dim>
					<dim>80</dim>
					<dim>80</dim>
				</port>
			</output>
		</layer>
		<layer id="144" name="233" type="Add" version="opset1">
			<data auto_broadcast="numpy"/>
			<rt_info>
				<attribute name="fused_names" value="233" version="0"/>
			</rt_info>
			<input>
				<port id="0" precision="FP32">
					<dim>1</dim>
					<dim>64</dim>
					<dim>80</dim>
					<dim>80</dim>
				</port>
				<port id="1" precision="FP32">
					<dim>1</dim>
					<dim>64</dim>
					<dim>80</dim>
					<dim>80</dim>
				</port>
			</input>
			<output>
				<port id="2" names="233" precision="FP32">
					<dim>1</dim>
					<dim>64</dim>
					<dim>80</dim>
					<dim>80</dim>
				</port>
			</output>
		</layer>
		<layer id="145" name="model.4.m.1.cv1.conv.weight_compressed" type="Const" version="opset1">
			<data element_type="f16" offset="330084" shape="64, 64, 1, 1" size="8192"/>
			<output>
				<port id="0" precision="FP16">
					<dim>64</dim>
					<dim>64</dim>
					<dim>1</dim>
					<dim>1</dim>
				</port>
			</output>
		</layer>
		<layer id="146" name="model.4.m.1.cv1.conv.weight" type="Convert" version="opset1">
			<data destination_type="f32"/>
			<rt_info>
				<attribute name="decompression" version="0"/>
				<attribute name="fused_names" value="model.4.m.1.cv1.conv.weight" version="0"/>
			</rt_info>
			<input>
				<port id="0" precision="FP16">
					<dim>64</dim>
					<dim>64</dim>
					<dim>1</dim>
					<dim>1</dim>
				</port>
			</input>
			<output>
				<port id="1" names="model.4.m.1.cv1.conv.weight" precision="FP32">
					<dim>64</dim>
					<dim>64</dim>
					<dim>1</dim>
					<dim>1</dim>
				</port>
			</output>
		</layer>
		<layer id="147" name="Convolution_722" type="Convolution" version="opset1">
			<data auto_pad="explicit" dilations="1, 1" pads_begin="0, 0" pads_end="0, 0" strides="1, 1"/>
			<rt_info>
				<attribute name="fused_names" value="Convolution_722" version="0"/>
			</rt_info>
			<input>
				<port id="0" precision="FP32">
					<dim>1</dim>
					<dim>64</dim>
					<dim>80</dim>
					<dim>80</dim>
				</port>
				<port id="1" precision="FP32">
					<dim>64</dim>
					<dim>64</dim>
					<dim>1</dim>
					<dim>1</dim>
				</port>
			</input>
			<output>
				<port id="2" precision="FP32">
					<dim>1</dim>
					<dim>64</dim>
					<dim>80</dim>
					<dim>80</dim>
				</port>
			</output>
		</layer>
		<layer id="148" name="Reshape_742_compressed" type="Const" version="opset1">
			<data element_type="f16" offset="338276" shape="1, 64, 1, 1" size="128"/>
			<output>
				<port id="0" precision="FP16">
					<dim>1</dim>
					<dim>64</dim>
					<dim>1</dim>
					<dim>1</dim>
				</port>
			</output>
		</layer>
		<layer id="149" name="Reshape_742" type="Convert" version="opset1">
			<data destination_type="f32"/>
			<rt_info>
				<attribute name="decompression" version="0"/>
			</rt_info>
			<input>
				<port id="0" precision="FP16">
					<dim>1</dim>
					<dim>64</dim>
					<dim>1</dim>
					<dim>1</dim>
				</port>
			</input>
			<output>
				<port id="1" precision="FP32">
					<dim>1</dim>
					<dim>64</dim>
					<dim>1</dim>
					<dim>1</dim>
				</port>
			</output>
		</layer>
		<layer id="150" name="234" type="Add" version="opset1">
			<data auto_broadcast="numpy"/>
			<rt_info>
				<attribute name="fused_names" value="234, Concat_741, Reshape_742" version="0"/>
			</rt_info>
			<input>
				<port id="0" precision="FP32">
					<dim>1</dim>
					<dim>64</dim>
					<dim>80</dim>
					<dim>80</dim>
				</port>
				<port id="1" precision="FP32">
					<dim>1</dim>
					<dim>64</dim>
					<dim>1</dim>
					<dim>1</dim>
				</port>
			</input>
			<output>
				<port id="2" names="234" precision="FP32">
					<dim>1</dim>
					<dim>64</dim>
					<dim>80</dim>
					<dim>80</dim>
				</port>
			</output>
		</layer>
		<layer id="151" name="Constant_770_compressed" type="Const" version="opset1">
			<data element_type="f16" offset="7202" shape="1" size="2"/>
			<output>
				<port id="0" precision="FP16">
					<dim>1</dim>
				</port>
			</output>
		</layer>
		<layer id="152" name="Constant_770" type="Convert" version="opset1">
			<data destination_type="f32"/>
			<rt_info>
				<attribute name="decompression" version="0"/>
				<attribute name="fused_names" value="Constant_770" version="0"/>
			</rt_info>
			<input>
				<port id="0" precision="FP16">
					<dim>1</dim>
				</port>
			</input>
			<output>
				<port id="1" precision="FP32">
					<dim>1</dim>
				</port>
			</output>
		</layer>
		<layer id="153" name="235" type="PReLU" version="opset1">
			<rt_info>
				<attribute name="fused_names" value="235" version="0"/>
			</rt_info>
			<input>
				<port id="0" precision="FP32">
					<dim>1</dim>
					<dim>64</dim>
					<dim>80</dim>
					<dim>80</dim>
				</port>
				<port id="1" precision="FP32">
					<dim>1</dim>
				</port>
			</input>
			<output>
				<port id="2" names="235" precision="FP32">
					<dim>1</dim>
					<dim>64</dim>
					<dim>80</dim>
					<dim>80</dim>
				</port>
			</output>
		</layer>
		<layer id="154" name="model.4.m.1.cv2.conv.weight_compressed" type="Const" version="opset1">
			<data element_type="f16" offset="338404" shape="64, 64, 3, 3" size="73728"/>
			<output>
				<port id="0" precision="FP16">
					<dim>64</dim>
					<dim>64</dim>
					<dim>3</dim>
					<dim>3</dim>
				</port>
			</output>
		</layer>
		<layer id="155" name="model.4.m.1.cv2.conv.weight" type="Convert" version="opset1">
			<data destination_type="f32"/>
			<rt_info>
				<attribute name="decompression" version="0"/>
				<attribute name="fused_names" value="model.4.m.1.cv2.conv.weight" version="0"/>
			</rt_info>
			<input>
				<port id="0" precision="FP16">
					<dim>64</dim>
					<dim>64</dim>
					<dim>3</dim>
					<dim>3</dim>
				</port>
			</input>
			<output>
				<port id="1" names="model.4.m.1.cv2.conv.weight" precision="FP32">
					<dim>64</dim>
					<dim>64</dim>
					<dim>3</dim>
					<dim>3</dim>
				</port>
			</output>
		</layer>
		<layer id="156" name="Convolution_772" type="Convolution" version="opset1">
			<data auto_pad="explicit" dilations="1, 1" pads_begin="1, 1" pads_end="1, 1" strides="1, 1"/>
			<rt_info>
				<attribute name="fused_names" value="Convolution_772" version="0"/>
			</rt_info>
			<input>
				<port id="0" precision="FP32">
					<dim>1</dim>
					<dim>64</dim>
					<dim>80</dim>
					<dim>80</dim>
				</port>
				<port id="1" precision="FP32">
					<dim>64</dim>
					<dim>64</dim>
					<dim>3</dim>
					<dim>3</dim>
				</port>
			</input>
			<output>
				<port id="2" precision="FP32">
					<dim>1</dim>
					<dim>64</dim>
					<dim>80</dim>
					<dim>80</dim>
				</port>
			</output>
		</layer>
		<layer id="157" name="Reshape_792_compressed" type="Const" version="opset1">
			<data element_type="f16" offset="412132" shape="1, 64, 1, 1" size="128"/>
			<output>
				<port id="0" precision="FP16">
					<dim>1</dim>
					<dim>64</dim>
					<dim>1</dim>
					<dim>1</dim>
				</port>
			</output>
		</layer>
		<layer id="158" name="Reshape_792" type="Convert" version="opset1">
			<data destination_type="f32"/>
			<rt_info>
				<attribute name="decompression" version="0"/>
			</rt_info>
			<input>
				<port id="0" precision="FP16">
					<dim>1</dim>
					<dim>64</dim>
					<dim>1</dim>
					<dim>1</dim>
				</port>
			</input>
			<output>
				<port id="1" precision="FP32">
					<dim>1</dim>
					<dim>64</dim>
					<dim>1</dim>
					<dim>1</dim>
				</port>
			</output>
		</layer>
		<layer id="159" name="236" type="Add" version="opset1">
			<data auto_broadcast="numpy"/>
			<rt_info>
				<attribute name="fused_names" value="236, Concat_791, Reshape_792" version="0"/>
			</rt_info>
			<input>
				<port id="0" precision="FP32">
					<dim>1</dim>
					<dim>64</dim>
					<dim>80</dim>
					<dim>80</dim>
				</port>
				<port id="1" precision="FP32">
					<dim>1</dim>
					<dim>64</dim>
					<dim>1</dim>
					<dim>1</dim>
				</port>
			</input>
			<output>
				<port id="2" names="236" precision="FP32">
					<dim>1</dim>
					<dim>64</dim>
					<dim>80</dim>
					<dim>80</dim>
				</port>
			</output>
		</layer>
		<layer id="160" name="Constant_820_compressed" type="Const" version="opset1">
			<data element_type="f16" offset="7202" shape="1" size="2"/>
			<output>
				<port id="0" precision="FP16">
					<dim>1</dim>
				</port>
			</output>
		</layer>
		<layer id="161" name="Constant_820" type="Convert" version="opset1">
			<data destination_type="f32"/>
			<rt_info>
				<attribute name="decompression" version="0"/>
				<attribute name="fused_names" value="Constant_820" version="0"/>
			</rt_info>
			<input>
				<port id="0" precision="FP16">
					<dim>1</dim>
				</port>
			</input>
			<output>
				<port id="1" precision="FP32">
					<dim>1</dim>
				</port>
			</output>
		</layer>
		<layer id="162" name="237" type="PReLU" version="opset1">
			<rt_info>
				<attribute name="fused_names" value="237" version="0"/>
			</rt_info>
			<input>
				<port id="0" precision="FP32">
					<dim>1</dim>
					<dim>64</dim>
					<dim>80</dim>
					<dim>80</dim>
				</port>
				<port id="1" precision="FP32">
					<dim>1</dim>
				</port>
			</input>
			<output>
				<port id="2" names="237" precision="FP32">
					<dim>1</dim>
					<dim>64</dim>
					<dim>80</dim>
					<dim>80</dim>
				</port>
			</output>
		</layer>
		<layer id="163" name="238" type="Add" version="opset1">
			<data auto_broadcast="numpy"/>
			<rt_info>
				<attribute name="fused_names" value="238" version="0"/>
			</rt_info>
			<input>
				<port id="0" precision="FP32">
					<dim>1</dim>
					<dim>64</dim>
					<dim>80</dim>
					<dim>80</dim>
				</port>
				<port id="1" precision="FP32">
					<dim>1</dim>
					<dim>64</dim>
					<dim>80</dim>
					<dim>80</dim>
				</port>
			</input>
			<output>
				<port id="2" names="238" precision="FP32">
					<dim>1</dim>
					<dim>64</dim>
					<dim>80</dim>
					<dim>80</dim>
				</port>
			</output>
		</layer>
		<layer id="164" name="model.4.m.2.cv1.conv.weight_compressed" type="Const" version="opset1">
			<data element_type="f16" offset="412260" shape="64, 64, 1, 1" size="8192"/>
			<output>
				<port id="0" precision="FP16">
					<dim>64</dim>
					<dim>64</dim>
					<dim>1</dim>
					<dim>1</dim>
				</port>
			</output>
		</layer>
		<layer id="165" name="model.4.m.2.cv1.conv.weight" type="Convert" version="opset1">
			<data destination_type="f32"/>
			<rt_info>
				<attribute name="decompression" version="0"/>
				<attribute name="fused_names" value="model.4.m.2.cv1.conv.weight" version="0"/>
			</rt_info>
			<input>
				<port id="0" precision="FP16">
					<dim>64</dim>
					<dim>64</dim>
					<dim>1</dim>
					<dim>1</dim>
				</port>
			</input>
			<output>
				<port id="1" names="model.4.m.2.cv1.conv.weight" precision="FP32">
					<dim>64</dim>
					<dim>64</dim>
					<dim>1</dim>
					<dim>1</dim>
				</port>
			</output>
		</layer>
		<layer id="166" name="Convolution_823" type="Convolution" version="opset1">
			<data auto_pad="explicit" dilations="1, 1" pads_begin="0, 0" pads_end="0, 0" strides="1, 1"/>
			<rt_info>
				<attribute name="fused_names" value="Convolution_823" version="0"/>
			</rt_info>
			<input>
				<port id="0" precision="FP32">
					<dim>1</dim>
					<dim>64</dim>
					<dim>80</dim>
					<dim>80</dim>
				</port>
				<port id="1" precision="FP32">
					<dim>64</dim>
					<dim>64</dim>
					<dim>1</dim>
					<dim>1</dim>
				</port>
			</input>
			<output>
				<port id="2" precision="FP32">
					<dim>1</dim>
					<dim>64</dim>
					<dim>80</dim>
					<dim>80</dim>
				</port>
			</output>
		</layer>
		<layer id="167" name="Reshape_843_compressed" type="Const" version="opset1">
			<data element_type="f16" offset="420452" shape="1, 64, 1, 1" size="128"/>
			<output>
				<port id="0" precision="FP16">
					<dim>1</dim>
					<dim>64</dim>
					<dim>1</dim>
					<dim>1</dim>
				</port>
			</output>
		</layer>
		<layer id="168" name="Reshape_843" type="Convert" version="opset1">
			<data destination_type="f32"/>
			<rt_info>
				<attribute name="decompression" version="0"/>
			</rt_info>
			<input>
				<port id="0" precision="FP16">
					<dim>1</dim>
					<dim>64</dim>
					<dim>1</dim>
					<dim>1</dim>
				</port>
			</input>
			<output>
				<port id="1" precision="FP32">
					<dim>1</dim>
					<dim>64</dim>
					<dim>1</dim>
					<dim>1</dim>
				</port>
			</output>
		</layer>
		<layer id="169" name="239" type="Add" version="opset1">
			<data auto_broadcast="numpy"/>
			<rt_info>
				<attribute name="fused_names" value="239, Concat_842, Reshape_843" version="0"/>
			</rt_info>
			<input>
				<port id="0" precision="FP32">
					<dim>1</dim>
					<dim>64</dim>
					<dim>80</dim>
					<dim>80</dim>
				</port>
				<port id="1" precision="FP32">
					<dim>1</dim>
					<dim>64</dim>
					<dim>1</dim>
					<dim>1</dim>
				</port>
			</input>
			<output>
				<port id="2" names="239" precision="FP32">
					<dim>1</dim>
					<dim>64</dim>
					<dim>80</dim>
					<dim>80</dim>
				</port>
			</output>
		</layer>
		<layer id="170" name="Constant_871_compressed" type="Const" version="opset1">
			<data element_type="f16" offset="7202" shape="1" size="2"/>
			<output>
				<port id="0" precision="FP16">
					<dim>1</dim>
				</port>
			</output>
		</layer>
		<layer id="171" name="Constant_871" type="Convert" version="opset1">
			<data destination_type="f32"/>
			<rt_info>
				<attribute name="decompression" version="0"/>
				<attribute name="fused_names" value="Constant_871" version="0"/>
			</rt_info>
			<input>
				<port id="0" precision="FP16">
					<dim>1</dim>
				</port>
			</input>
			<output>
				<port id="1" precision="FP32">
					<dim>1</dim>
				</port>
			</output>
		</layer>
		<layer id="172" name="240" type="PReLU" version="opset1">
			<rt_info>
				<attribute name="fused_names" value="240" version="0"/>
			</rt_info>
			<input>
				<port id="0" precision="FP32">
					<dim>1</dim>
					<dim>64</dim>
					<dim>80</dim>
					<dim>80</dim>
				</port>
				<port id="1" precision="FP32">
					<dim>1</dim>
				</port>
			</input>
			<output>
				<port id="2" names="240" precision="FP32">
					<dim>1</dim>
					<dim>64</dim>
					<dim>80</dim>
					<dim>80</dim>
				</port>
			</output>
		</layer>
		<layer id="173" name="model.4.m.2.cv2.conv.weight_compressed" type="Const" version="opset1">
			<data element_type="f16" offset="420580" shape="64, 64, 3, 3" size="73728"/>
			<output>
				<port id="0" precision="FP16">
					<dim>64</dim>
					<dim>64</dim>
					<dim>3</dim>
					<dim>3</dim>
				</port>
			</output>
		</layer>
		<layer id="174" name="model.4.m.2.cv2.conv.weight" type="Convert" version="opset1">
			<data destination_type="f32"/>
			<rt_info>
				<attribute name="decompression" version="0"/>
				<attribute name="fused_names" value="model.4.m.2.cv2.conv.weight" version="0"/>
			</rt_info>
			<input>
				<port id="0" precision="FP16">
					<dim>64</dim>
					<dim>64</dim>
					<dim>3</dim>
					<dim>3</dim>
				</port>
			</input>
			<output>
				<port id="1" names="model.4.m.2.cv2.conv.weight" precision="FP32">
					<dim>64</dim>
					<dim>64</dim>
					<dim>3</dim>
					<dim>3</dim>
				</port>
			</output>
		</layer>
		<layer id="175" name="Convolution_873" type="Convolution" version="opset1">
			<data auto_pad="explicit" dilations="1, 1" pads_begin="1, 1" pads_end="1, 1" strides="1, 1"/>
			<rt_info>
				<attribute name="fused_names" value="Convolution_873" version="0"/>
			</rt_info>
			<input>
				<port id="0" precision="FP32">
					<dim>1</dim>
					<dim>64</dim>
					<dim>80</dim>
					<dim>80</dim>
				</port>
				<port id="1" precision="FP32">
					<dim>64</dim>
					<dim>64</dim>
					<dim>3</dim>
					<dim>3</dim>
				</port>
			</input>
			<output>
				<port id="2" precision="FP32">
					<dim>1</dim>
					<dim>64</dim>
					<dim>80</dim>
					<dim>80</dim>
				</port>
			</output>
		</layer>
		<layer id="176" name="Reshape_893_compressed" type="Const" version="opset1">
			<data element_type="f16" offset="494308" shape="1, 64, 1, 1" size="128"/>
			<output>
				<port id="0" precision="FP16">
					<dim>1</dim>
					<dim>64</dim>
					<dim>1</dim>
					<dim>1</dim>
				</port>
			</output>
		</layer>
		<layer id="177" name="Reshape_893" type="Convert" version="opset1">
			<data destination_type="f32"/>
			<rt_info>
				<attribute name="decompression" version="0"/>
			</rt_info>
			<input>
				<port id="0" precision="FP16">
					<dim>1</dim>
					<dim>64</dim>
					<dim>1</dim>
					<dim>1</dim>
				</port>
			</input>
			<output>
				<port id="1" precision="FP32">
					<dim>1</dim>
					<dim>64</dim>
					<dim>1</dim>
					<dim>1</dim>
				</port>
			</output>
		</layer>
		<layer id="178" name="241" type="Add" version="opset1">
			<data auto_broadcast="numpy"/>
			<rt_info>
				<attribute name="fused_names" value="241, Concat_892, Reshape_893" version="0"/>
			</rt_info>
			<input>
				<port id="0" precision="FP32">
					<dim>1</dim>
					<dim>64</dim>
					<dim>80</dim>
					<dim>80</dim>
				</port>
				<port id="1" precision="FP32">
					<dim>1</dim>
					<dim>64</dim>
					<dim>1</dim>
					<dim>1</dim>
				</port>
			</input>
			<output>
				<port id="2" names="241" precision="FP32">
					<dim>1</dim>
					<dim>64</dim>
					<dim>80</dim>
					<dim>80</dim>
				</port>
			</output>
		</layer>
		<layer id="179" name="Constant_921_compressed" type="Const" version="opset1">
			<data element_type="f16" offset="7202" shape="1" size="2"/>
			<output>
				<port id="0" precision="FP16">
					<dim>1</dim>
				</port>
			</output>
		</layer>
		<layer id="180" name="Constant_921" type="Convert" version="opset1">
			<data destination_type="f32"/>
			<rt_info>
				<attribute name="decompression" version="0"/>
				<attribute name="fused_names" value="Constant_921" version="0"/>
			</rt_info>
			<input>
				<port id="0" precision="FP16">
					<dim>1</dim>
				</port>
			</input>
			<output>
				<port id="1" precision="FP32">
					<dim>1</dim>
				</port>
			</output>
		</layer>
		<layer id="181" name="242" type="PReLU" version="opset1">
			<rt_info>
				<attribute name="fused_names" value="242" version="0"/>
			</rt_info>
			<input>
				<port id="0" precision="FP32">
					<dim>1</dim>
					<dim>64</dim>
					<dim>80</dim>
					<dim>80</dim>
				</port>
				<port id="1" precision="FP32">
					<dim>1</dim>
				</port>
			</input>
			<output>
				<port id="2" names="242" precision="FP32">
					<dim>1</dim>
					<dim>64</dim>
					<dim>80</dim>
					<dim>80</dim>
				</port>
			</output>
		</layer>
		<layer id="182" name="243" type="Add" version="opset1">
			<data auto_broadcast="numpy"/>
			<rt_info>
				<attribute name="fused_names" value="243" version="0"/>
			</rt_info>
			<input>
				<port id="0" precision="FP32">
					<dim>1</dim>
					<dim>64</dim>
					<dim>80</dim>
					<dim>80</dim>
				</port>
				<port id="1" precision="FP32">
					<dim>1</dim>
					<dim>64</dim>
					<dim>80</dim>
					<dim>80</dim>
				</port>
			</input>
			<output>
				<port id="2" names="243" precision="FP32">
					<dim>1</dim>
					<dim>64</dim>
					<dim>80</dim>
					<dim>80</dim>
				</port>
			</output>
		</layer>
		<layer id="183" name="model.4.cv3.weight_compressed" type="Const" version="opset1">
			<data element_type="f16" offset="494436" shape="64, 64, 1, 1" size="8192"/>
			<output>
				<port id="0" precision="FP16">
					<dim>64</dim>
					<dim>64</dim>
					<dim>1</dim>
					<dim>1</dim>
				</port>
			</output>
		</layer>
		<layer id="184" name="model.4.cv3.weight" type="Convert" version="opset1">
			<data destination_type="f32"/>
			<rt_info>
				<attribute name="decompression" version="0"/>
				<attribute name="fused_names" value="model.4.cv3.weight" version="0"/>
			</rt_info>
			<input>
				<port id="0" precision="FP16">
					<dim>64</dim>
					<dim>64</dim>
					<dim>1</dim>
					<dim>1</dim>
				</port>
			</input>
			<output>
				<port id="1" names="model.4.cv3.weight" precision="FP32">
					<dim>64</dim>
					<dim>64</dim>
					<dim>1</dim>
					<dim>1</dim>
				</port>
			</output>
		</layer>
		<layer id="185" name="244" type="Convolution" version="opset1">
			<data auto_pad="explicit" dilations="1, 1" pads_begin="0, 0" pads_end="0, 0" strides="1, 1"/>
			<rt_info>
				<attribute name="fused_names" value="244" version="0"/>
			</rt_info>
			<input>
				<port id="0" precision="FP32">
					<dim>1</dim>
					<dim>64</dim>
					<dim>80</dim>
					<dim>80</dim>
				</port>
				<port id="1" precision="FP32">
					<dim>64</dim>
					<dim>64</dim>
					<dim>1</dim>
					<dim>1</dim>
				</port>
			</input>
			<output>
				<port id="2" names="244" precision="FP32">
					<dim>1</dim>
					<dim>64</dim>
					<dim>80</dim>
					<dim>80</dim>
				</port>
			</output>
		</layer>
		<layer id="186" name="model.4.cv2.weight_compressed" type="Const" version="opset1">
			<data element_type="f16" offset="502628" shape="64, 128, 1, 1" size="16384"/>
			<output>
				<port id="0" precision="FP16">
					<dim>64</dim>
					<dim>128</dim>
					<dim>1</dim>
					<dim>1</dim>
				</port>
			</output>
		</layer>
		<layer id="187" name="model.4.cv2.weight" type="Convert" version="opset1">
			<data destination_type="f32"/>
			<rt_info>
				<attribute name="decompression" version="0"/>
				<attribute name="fused_names" value="model.4.cv2.weight" version="0"/>
			</rt_info>
			<input>
				<port id="0" precision="FP16">
					<dim>64</dim>
					<dim>128</dim>
					<dim>1</dim>
					<dim>1</dim>
				</port>
			</input>
			<output>
				<port id="1" names="model.4.cv2.weight" precision="FP32">
					<dim>64</dim>
					<dim>128</dim>
					<dim>1</dim>
					<dim>1</dim>
				</port>
			</output>
		</layer>
		<layer id="188" name="245" type="Convolution" version="opset1">
			<data auto_pad="explicit" dilations="1, 1" pads_begin="0, 0" pads_end="0, 0" strides="1, 1"/>
			<rt_info>
				<attribute name="fused_names" value="245" version="0"/>
			</rt_info>
			<input>
				<port id="0" precision="FP32">
					<dim>1</dim>
					<dim>128</dim>
					<dim>80</dim>
					<dim>80</dim>
				</port>
				<port id="1" precision="FP32">
					<dim>64</dim>
					<dim>128</dim>
					<dim>1</dim>
					<dim>1</dim>
				</port>
			</input>
			<output>
				<port id="2" names="245" precision="FP32">
					<dim>1</dim>
					<dim>64</dim>
					<dim>80</dim>
					<dim>80</dim>
				</port>
			</output>
		</layer>
		<layer id="189" name="246" type="Concat" version="opset1">
			<data axis="1"/>
			<rt_info>
				<attribute name="fused_names" value="246" version="0"/>
			</rt_info>
			<input>
				<port id="0" precision="FP32">
					<dim>1</dim>
					<dim>64</dim>
					<dim>80</dim>
					<dim>80</dim>
				</port>
				<port id="1" precision="FP32">
					<dim>1</dim>
					<dim>64</dim>
					<dim>80</dim>
					<dim>80</dim>
				</port>
			</input>
			<output>
				<port id="2" names="246" precision="FP32">
					<dim>1</dim>
					<dim>128</dim>
					<dim>80</dim>
					<dim>80</dim>
				</port>
			</output>
		</layer>
		<layer id="190" name="Constant_9752_compressed" type="Const" version="opset1">
			<data element_type="f16" offset="519012" shape="1, 128, 1, 1" size="256"/>
			<output>
				<port id="0" precision="FP16">
					<dim>1</dim>
					<dim>128</dim>
					<dim>1</dim>
					<dim>1</dim>
				</port>
			</output>
		</layer>
		<layer id="191" name="Constant_9752" type="Convert" version="opset1">
			<data destination_type="f32"/>
			<rt_info>
				<attribute name="decompression" version="0"/>
				<attribute name="fused_names" value="247, model.4.bn.bias, model.4.bn.running_mean, model.4.bn.running_var, model.4.bn.weight" version="0"/>
			</rt_info>
			<input>
				<port id="0" precision="FP16">
					<dim>1</dim>
					<dim>128</dim>
					<dim>1</dim>
					<dim>1</dim>
				</port>
			</input>
			<output>
				<port id="1" precision="FP32">
					<dim>1</dim>
					<dim>128</dim>
					<dim>1</dim>
					<dim>1</dim>
				</port>
			</output>
		</layer>
		<layer id="192" name="Multiply_10519" type="Multiply" version="opset1">
			<data auto_broadcast="numpy"/>
			<rt_info>
				<attribute name="fused_names" value="247, model.4.bn.bias, model.4.bn.running_mean, model.4.bn.running_var, model.4.bn.weight" version="0"/>
			</rt_info>
			<input>
				<port id="0" precision="FP32">
					<dim>1</dim>
					<dim>128</dim>
					<dim>80</dim>
					<dim>80</dim>
				</port>
				<port id="1" precision="FP32">
					<dim>1</dim>
					<dim>128</dim>
					<dim>1</dim>
					<dim>1</dim>
				</port>
			</input>
			<output>
				<port id="2" precision="FP32">
					<dim>1</dim>
					<dim>128</dim>
					<dim>80</dim>
					<dim>80</dim>
				</port>
			</output>
		</layer>
		<layer id="193" name="Constant_10524_compressed" type="Const" version="opset1">
			<data element_type="f16" offset="519268" shape="1, 128, 1, 1" size="256"/>
			<output>
				<port id="0" precision="FP16">
					<dim>1</dim>
					<dim>128</dim>
					<dim>1</dim>
					<dim>1</dim>
				</port>
			</output>
		</layer>
		<layer id="194" name="Constant_10524" type="Convert" version="opset1">
			<data destination_type="f32"/>
			<rt_info>
				<attribute name="decompression" version="0"/>
			</rt_info>
			<input>
				<port id="0" precision="FP16">
					<dim>1</dim>
					<dim>128</dim>
					<dim>1</dim>
					<dim>1</dim>
				</port>
			</input>
			<output>
				<port id="1" precision="FP32">
					<dim>1</dim>
					<dim>128</dim>
					<dim>1</dim>
					<dim>1</dim>
				</port>
			</output>
		</layer>
		<layer id="195" name="247" type="Add" version="opset1">
			<data auto_broadcast="numpy"/>
			<rt_info>
				<attribute name="fused_names" value="247, model.4.bn.bias, model.4.bn.running_mean, model.4.bn.running_var, model.4.bn.weight" version="0"/>
			</rt_info>
			<input>
				<port id="0" precision="FP32">
					<dim>1</dim>
					<dim>128</dim>
					<dim>80</dim>
					<dim>80</dim>
				</port>
				<port id="1" precision="FP32">
					<dim>1</dim>
					<dim>128</dim>
					<dim>1</dim>
					<dim>1</dim>
				</port>
			</input>
			<output>
				<port id="2" names="247" precision="FP32">
					<dim>1</dim>
					<dim>128</dim>
					<dim>80</dim>
					<dim>80</dim>
				</port>
			</output>
		</layer>
		<layer id="196" name="Constant_930_compressed" type="Const" version="opset1">
			<data element_type="f16" offset="7202" shape="1" size="2"/>
			<output>
				<port id="0" precision="FP16">
					<dim>1</dim>
				</port>
			</output>
		</layer>
		<layer id="197" name="Constant_930" type="Convert" version="opset1">
			<data destination_type="f32"/>
			<rt_info>
				<attribute name="decompression" version="0"/>
				<attribute name="fused_names" value="Constant_930" version="0"/>
			</rt_info>
			<input>
				<port id="0" precision="FP16">
					<dim>1</dim>
				</port>
			</input>
			<output>
				<port id="1" precision="FP32">
					<dim>1</dim>
				</port>
			</output>
		</layer>
		<layer id="198" name="248" type="PReLU" version="opset1">
			<rt_info>
				<attribute name="fused_names" value="248" version="0"/>
			</rt_info>
			<input>
				<port id="0" precision="FP32">
					<dim>1</dim>
					<dim>128</dim>
					<dim>80</dim>
					<dim>80</dim>
				</port>
				<port id="1" precision="FP32">
					<dim>1</dim>
				</port>
			</input>
			<output>
				<port id="2" names="248" precision="FP32">
					<dim>1</dim>
					<dim>128</dim>
					<dim>80</dim>
					<dim>80</dim>
				</port>
			</output>
		</layer>
		<layer id="199" name="model.4.cv4.conv.weight_compressed" type="Const" version="opset1">
			<data element_type="f16" offset="519524" shape="128, 128, 1, 1" size="32768"/>
			<output>
				<port id="0" precision="FP16">
					<dim>128</dim>
					<dim>128</dim>
					<dim>1</dim>
					<dim>1</dim>
				</port>
			</output>
		</layer>
		<layer id="200" name="model.4.cv4.conv.weight" type="Convert" version="opset1">
			<data destination_type="f32"/>
			<rt_info>
				<attribute name="decompression" version="0"/>
				<attribute name="fused_names" value="model.4.cv4.conv.weight" version="0"/>
			</rt_info>
			<input>
				<port id="0" precision="FP16">
					<dim>128</dim>
					<dim>128</dim>
					<dim>1</dim>
					<dim>1</dim>
				</port>
			</input>
			<output>
				<port id="1" names="model.4.cv4.conv.weight" precision="FP32">
					<dim>128</dim>
					<dim>128</dim>
					<dim>1</dim>
					<dim>1</dim>
				</port>
			</output>
		</layer>
		<layer id="201" name="Convolution_932" type="Convolution" version="opset1">
			<data auto_pad="explicit" dilations="1, 1" pads_begin="0, 0" pads_end="0, 0" strides="1, 1"/>
			<rt_info>
				<attribute name="fused_names" value="Convolution_932" version="0"/>
			</rt_info>
			<input>
				<port id="0" precision="FP32">
					<dim>1</dim>
					<dim>128</dim>
					<dim>80</dim>
					<dim>80</dim>
				</port>
				<port id="1" precision="FP32">
					<dim>128</dim>
					<dim>128</dim>
					<dim>1</dim>
					<dim>1</dim>
				</port>
			</input>
			<output>
				<port id="2" precision="FP32">
					<dim>1</dim>
					<dim>128</dim>
					<dim>80</dim>
					<dim>80</dim>
				</port>
			</output>
		</layer>
		<layer id="202" name="Reshape_952_compressed" type="Const" version="opset1">
			<data element_type="f16" offset="552292" shape="1, 128, 1, 1" size="256"/>
			<output>
				<port id="0" precision="FP16">
					<dim>1</dim>
					<dim>128</dim>
					<dim>1</dim>
					<dim>1</dim>
				</port>
			</output>
		</layer>
		<layer id="203" name="Reshape_952" type="Convert" version="opset1">
			<data destination_type="f32"/>
			<rt_info>
				<attribute name="decompression" version="0"/>
			</rt_info>
			<input>
				<port id="0" precision="FP16">
					<dim>1</dim>
					<dim>128</dim>
					<dim>1</dim>
					<dim>1</dim>
				</port>
			</input>
			<output>
				<port id="1" precision="FP32">
					<dim>1</dim>
					<dim>128</dim>
					<dim>1</dim>
					<dim>1</dim>
				</port>
			</output>
		</layer>
		<layer id="204" name="249" type="Add" version="opset1">
			<data auto_broadcast="numpy"/>
			<rt_info>
				<attribute name="fused_names" value="249, Concat_951, Reshape_952" version="0"/>
			</rt_info>
			<input>
				<port id="0" precision="FP32">
					<dim>1</dim>
					<dim>128</dim>
					<dim>80</dim>
					<dim>80</dim>
				</port>
				<port id="1" precision="FP32">
					<dim>1</dim>
					<dim>128</dim>
					<dim>1</dim>
					<dim>1</dim>
				</port>
			</input>
			<output>
				<port id="2" names="249" precision="FP32">
					<dim>1</dim>
					<dim>128</dim>
					<dim>80</dim>
					<dim>80</dim>
				</port>
			</output>
		</layer>
		<layer id="205" name="Constant_980_compressed" type="Const" version="opset1">
			<data element_type="f16" offset="7202" shape="1" size="2"/>
			<output>
				<port id="0" precision="FP16">
					<dim>1</dim>
				</port>
			</output>
		</layer>
		<layer id="206" name="Constant_980" type="Convert" version="opset1">
			<data destination_type="f32"/>
			<rt_info>
				<attribute name="decompression" version="0"/>
				<attribute name="fused_names" value="Constant_980" version="0"/>
			</rt_info>
			<input>
				<port id="0" precision="FP16">
					<dim>1</dim>
				</port>
			</input>
			<output>
				<port id="1" precision="FP32">
					<dim>1</dim>
				</port>
			</output>
		</layer>
		<layer id="207" name="250" type="PReLU" version="opset1">
			<rt_info>
				<attribute name="fused_names" value="250" version="0"/>
			</rt_info>
			<input>
				<port id="0" precision="FP32">
					<dim>1</dim>
					<dim>128</dim>
					<dim>80</dim>
					<dim>80</dim>
				</port>
				<port id="1" precision="FP32">
					<dim>1</dim>
				</port>
			</input>
			<output>
				<port id="2" names="250" precision="FP32">
					<dim>1</dim>
					<dim>128</dim>
					<dim>80</dim>
					<dim>80</dim>
				</port>
			</output>
		</layer>
		<layer id="208" name="model.5.conv.weight_compressed" type="Const" version="opset1">
			<data element_type="f16" offset="552548" shape="256, 128, 3, 3" size="589824"/>
			<output>
				<port id="0" precision="FP16">
					<dim>256</dim>
					<dim>128</dim>
					<dim>3</dim>
					<dim>3</dim>
				</port>
			</output>
		</layer>
		<layer id="209" name="model.5.conv.weight" type="Convert" version="opset1">
			<data destination_type="f32"/>
			<rt_info>
				<attribute name="decompression" version="0"/>
				<attribute name="fused_names" value="model.5.conv.weight" version="0"/>
			</rt_info>
			<input>
				<port id="0" precision="FP16">
					<dim>256</dim>
					<dim>128</dim>
					<dim>3</dim>
					<dim>3</dim>
				</port>
			</input>
			<output>
				<port id="1" names="model.5.conv.weight" precision="FP32">
					<dim>256</dim>
					<dim>128</dim>
					<dim>3</dim>
					<dim>3</dim>
				</port>
			</output>
		</layer>
		<layer id="210" name="Convolution_982" type="Convolution" version="opset1">
			<data auto_pad="explicit" dilations="1, 1" pads_begin="1, 1" pads_end="1, 1" strides="2, 2"/>
			<rt_info>
				<attribute name="fused_names" value="Convolution_982" version="0"/>
			</rt_info>
			<input>
				<port id="0" precision="FP32">
					<dim>1</dim>
					<dim>128</dim>
					<dim>80</dim>
					<dim>80</dim>
				</port>
				<port id="1" precision="FP32">
					<dim>256</dim>
					<dim>128</dim>
					<dim>3</dim>
					<dim>3</dim>
				</port>
			</input>
			<output>
				<port id="2" precision="FP32">
					<dim>1</dim>
					<dim>256</dim>
					<dim>40</dim>
					<dim>40</dim>
				</port>
			</output>
		</layer>
		<layer id="211" name="Reshape_1002_compressed" type="Const" version="opset1">
			<data element_type="f16" offset="1142372" shape="1, 256, 1, 1" size="512"/>
			<output>
				<port id="0" precision="FP16">
					<dim>1</dim>
					<dim>256</dim>
					<dim>1</dim>
					<dim>1</dim>
				</port>
			</output>
		</layer>
		<layer id="212" name="Reshape_1002" type="Convert" version="opset1">
			<data destination_type="f32"/>
			<rt_info>
				<attribute name="decompression" version="0"/>
			</rt_info>
			<input>
				<port id="0" precision="FP16">
					<dim>1</dim>
					<dim>256</dim>
					<dim>1</dim>
					<dim>1</dim>
				</port>
			</input>
			<output>
				<port id="1" precision="FP32">
					<dim>1</dim>
					<dim>256</dim>
					<dim>1</dim>
					<dim>1</dim>
				</port>
			</output>
		</layer>
		<layer id="213" name="251" type="Add" version="opset1">
			<data auto_broadcast="numpy"/>
			<rt_info>
				<attribute name="fused_names" value="251, Concat_1001, Reshape_1002" version="0"/>
			</rt_info>
			<input>
				<port id="0" precision="FP32">
					<dim>1</dim>
					<dim>256</dim>
					<dim>40</dim>
					<dim>40</dim>
				</port>
				<port id="1" precision="FP32">
					<dim>1</dim>
					<dim>256</dim>
					<dim>1</dim>
					<dim>1</dim>
				</port>
			</input>
			<output>
				<port id="2" names="251" precision="FP32">
					<dim>1</dim>
					<dim>256</dim>
					<dim>40</dim>
					<dim>40</dim>
				</port>
			</output>
		</layer>
		<layer id="214" name="Constant_1030_compressed" type="Const" version="opset1">
			<data element_type="f16" offset="7202" shape="1" size="2"/>
			<output>
				<port id="0" precision="FP16">
					<dim>1</dim>
				</port>
			</output>
		</layer>
		<layer id="215" name="Constant_1030" type="Convert" version="opset1">
			<data destination_type="f32"/>
			<rt_info>
				<attribute name="decompression" version="0"/>
				<attribute name="fused_names" value="Constant_1030" version="0"/>
			</rt_info>
			<input>
				<port id="0" precision="FP16">
					<dim>1</dim>
				</port>
			</input>
			<output>
				<port id="1" precision="FP32">
					<dim>1</dim>
				</port>
			</output>
		</layer>
		<layer id="216" name="252" type="PReLU" version="opset1">
			<rt_info>
				<attribute name="fused_names" value="252" version="0"/>
			</rt_info>
			<input>
				<port id="0" precision="FP32">
					<dim>1</dim>
					<dim>256</dim>
					<dim>40</dim>
					<dim>40</dim>
				</port>
				<port id="1" precision="FP32">
					<dim>1</dim>
				</port>
			</input>
			<output>
				<port id="2" names="252" precision="FP32">
					<dim>1</dim>
					<dim>256</dim>
					<dim>40</dim>
					<dim>40</dim>
				</port>
			</output>
		</layer>
		<layer id="217" name="model.6.cv1.conv.weight_compressed" type="Const" version="opset1">
			<data element_type="f16" offset="1142884" shape="128, 256, 1, 1" size="65536"/>
			<output>
				<port id="0" precision="FP16">
					<dim>128</dim>
					<dim>256</dim>
					<dim>1</dim>
					<dim>1</dim>
				</port>
			</output>
		</layer>
		<layer id="218" name="model.6.cv1.conv.weight" type="Convert" version="opset1">
			<data destination_type="f32"/>
			<rt_info>
				<attribute name="decompression" version="0"/>
				<attribute name="fused_names" value="model.6.cv1.conv.weight" version="0"/>
			</rt_info>
			<input>
				<port id="0" precision="FP16">
					<dim>128</dim>
					<dim>256</dim>
					<dim>1</dim>
					<dim>1</dim>
				</port>
			</input>
			<output>
				<port id="1" names="model.6.cv1.conv.weight" precision="FP32">
					<dim>128</dim>
					<dim>256</dim>
					<dim>1</dim>
					<dim>1</dim>
				</port>
			</output>
		</layer>
		<layer id="219" name="Convolution_1032" type="Convolution" version="opset1">
			<data auto_pad="explicit" dilations="1, 1" pads_begin="0, 0" pads_end="0, 0" strides="1, 1"/>
			<rt_info>
				<attribute name="fused_names" value="Convolution_1032" version="0"/>
			</rt_info>
			<input>
				<port id="0" precision="FP32">
					<dim>1</dim>
					<dim>256</dim>
					<dim>40</dim>
					<dim>40</dim>
				</port>
				<port id="1" precision="FP32">
					<dim>128</dim>
					<dim>256</dim>
					<dim>1</dim>
					<dim>1</dim>
				</port>
			</input>
			<output>
				<port id="2" precision="FP32">
					<dim>1</dim>
					<dim>128</dim>
					<dim>40</dim>
					<dim>40</dim>
				</port>
			</output>
		</layer>
		<layer id="220" name="Reshape_1052_compressed" type="Const" version="opset1">
			<data element_type="f16" offset="1208420" shape="1, 128, 1, 1" size="256"/>
			<output>
				<port id="0" precision="FP16">
					<dim>1</dim>
					<dim>128</dim>
					<dim>1</dim>
					<dim>1</dim>
				</port>
			</output>
		</layer>
		<layer id="221" name="Reshape_1052" type="Convert" version="opset1">
			<data destination_type="f32"/>
			<rt_info>
				<attribute name="decompression" version="0"/>
			</rt_info>
			<input>
				<port id="0" precision="FP16">
					<dim>1</dim>
					<dim>128</dim>
					<dim>1</dim>
					<dim>1</dim>
				</port>
			</input>
			<output>
				<port id="1" precision="FP32">
					<dim>1</dim>
					<dim>128</dim>
					<dim>1</dim>
					<dim>1</dim>
				</port>
			</output>
		</layer>
		<layer id="222" name="253" type="Add" version="opset1">
			<data auto_broadcast="numpy"/>
			<rt_info>
				<attribute name="fused_names" value="253, Concat_1051, Reshape_1052" version="0"/>
			</rt_info>
			<input>
				<port id="0" precision="FP32">
					<dim>1</dim>
					<dim>128</dim>
					<dim>40</dim>
					<dim>40</dim>
				</port>
				<port id="1" precision="FP32">
					<dim>1</dim>
					<dim>128</dim>
					<dim>1</dim>
					<dim>1</dim>
				</port>
			</input>
			<output>
				<port id="2" names="253" precision="FP32">
					<dim>1</dim>
					<dim>128</dim>
					<dim>40</dim>
					<dim>40</dim>
				</port>
			</output>
		</layer>
		<layer id="223" name="Constant_1080_compressed" type="Const" version="opset1">
			<data element_type="f16" offset="7202" shape="1" size="2"/>
			<output>
				<port id="0" precision="FP16">
					<dim>1</dim>
				</port>
			</output>
		</layer>
		<layer id="224" name="Constant_1080" type="Convert" version="opset1">
			<data destination_type="f32"/>
			<rt_info>
				<attribute name="decompression" version="0"/>
				<attribute name="fused_names" value="Constant_1080" version="0"/>
			</rt_info>
			<input>
				<port id="0" precision="FP16">
					<dim>1</dim>
				</port>
			</input>
			<output>
				<port id="1" precision="FP32">
					<dim>1</dim>
				</port>
			</output>
		</layer>
		<layer id="225" name="254" type="PReLU" version="opset1">
			<rt_info>
				<attribute name="fused_names" value="254" version="0"/>
			</rt_info>
			<input>
				<port id="0" precision="FP32">
					<dim>1</dim>
					<dim>128</dim>
					<dim>40</dim>
					<dim>40</dim>
				</port>
				<port id="1" precision="FP32">
					<dim>1</dim>
				</port>
			</input>
			<output>
				<port id="2" names="254" precision="FP32">
					<dim>1</dim>
					<dim>128</dim>
					<dim>40</dim>
					<dim>40</dim>
				</port>
			</output>
		</layer>
		<layer id="226" name="model.6.m.0.cv1.conv.weight_compressed" type="Const" version="opset1">
			<data element_type="f16" offset="1208676" shape="128, 128, 1, 1" size="32768"/>
			<output>
				<port id="0" precision="FP16">
					<dim>128</dim>
					<dim>128</dim>
					<dim>1</dim>
					<dim>1</dim>
				</port>
			</output>
		</layer>
		<layer id="227" name="model.6.m.0.cv1.conv.weight" type="Convert" version="opset1">
			<data destination_type="f32"/>
			<rt_info>
				<attribute name="decompression" version="0"/>
				<attribute name="fused_names" value="model.6.m.0.cv1.conv.weight" version="0"/>
			</rt_info>
			<input>
				<port id="0" precision="FP16">
					<dim>128</dim>
					<dim>128</dim>
					<dim>1</dim>
					<dim>1</dim>
				</port>
			</input>
			<output>
				<port id="1" names="model.6.m.0.cv1.conv.weight" precision="FP32">
					<dim>128</dim>
					<dim>128</dim>
					<dim>1</dim>
					<dim>1</dim>
				</port>
			</output>
		</layer>
		<layer id="228" name="Convolution_1082" type="Convolution" version="opset1">
			<data auto_pad="explicit" dilations="1, 1" pads_begin="0, 0" pads_end="0, 0" strides="1, 1"/>
			<rt_info>
				<attribute name="fused_names" value="Convolution_1082" version="0"/>
			</rt_info>
			<input>
				<port id="0" precision="FP32">
					<dim>1</dim>
					<dim>128</dim>
					<dim>40</dim>
					<dim>40</dim>
				</port>
				<port id="1" precision="FP32">
					<dim>128</dim>
					<dim>128</dim>
					<dim>1</dim>
					<dim>1</dim>
				</port>
			</input>
			<output>
				<port id="2" precision="FP32">
					<dim>1</dim>
					<dim>128</dim>
					<dim>40</dim>
					<dim>40</dim>
				</port>
			</output>
		</layer>
		<layer id="229" name="Reshape_1102_compressed" type="Const" version="opset1">
			<data element_type="f16" offset="1241444" shape="1, 128, 1, 1" size="256"/>
			<output>
				<port id="0" precision="FP16">
					<dim>1</dim>
					<dim>128</dim>
					<dim>1</dim>
					<dim>1</dim>
				</port>
			</output>
		</layer>
		<layer id="230" name="Reshape_1102" type="Convert" version="opset1">
			<data destination_type="f32"/>
			<rt_info>
				<attribute name="decompression" version="0"/>
			</rt_info>
			<input>
				<port id="0" precision="FP16">
					<dim>1</dim>
					<dim>128</dim>
					<dim>1</dim>
					<dim>1</dim>
				</port>
			</input>
			<output>
				<port id="1" precision="FP32">
					<dim>1</dim>
					<dim>128</dim>
					<dim>1</dim>
					<dim>1</dim>
				</port>
			</output>
		</layer>
		<layer id="231" name="255" type="Add" version="opset1">
			<data auto_broadcast="numpy"/>
			<rt_info>
				<attribute name="fused_names" value="255, Concat_1101, Reshape_1102" version="0"/>
			</rt_info>
			<input>
				<port id="0" precision="FP32">
					<dim>1</dim>
					<dim>128</dim>
					<dim>40</dim>
					<dim>40</dim>
				</port>
				<port id="1" precision="FP32">
					<dim>1</dim>
					<dim>128</dim>
					<dim>1</dim>
					<dim>1</dim>
				</port>
			</input>
			<output>
				<port id="2" names="255" precision="FP32">
					<dim>1</dim>
					<dim>128</dim>
					<dim>40</dim>
					<dim>40</dim>
				</port>
			</output>
		</layer>
		<layer id="232" name="Constant_1130_compressed" type="Const" version="opset1">
			<data element_type="f16" offset="7202" shape="1" size="2"/>
			<output>
				<port id="0" precision="FP16">
					<dim>1</dim>
				</port>
			</output>
		</layer>
		<layer id="233" name="Constant_1130" type="Convert" version="opset1">
			<data destination_type="f32"/>
			<rt_info>
				<attribute name="decompression" version="0"/>
				<attribute name="fused_names" value="Constant_1130" version="0"/>
			</rt_info>
			<input>
				<port id="0" precision="FP16">
					<dim>1</dim>
				</port>
			</input>
			<output>
				<port id="1" precision="FP32">
					<dim>1</dim>
				</port>
			</output>
		</layer>
		<layer id="234" name="256" type="PReLU" version="opset1">
			<rt_info>
				<attribute name="fused_names" value="256" version="0"/>
			</rt_info>
			<input>
				<port id="0" precision="FP32">
					<dim>1</dim>
					<dim>128</dim>
					<dim>40</dim>
					<dim>40</dim>
				</port>
				<port id="1" precision="FP32">
					<dim>1</dim>
				</port>
			</input>
			<output>
				<port id="2" names="256" precision="FP32">
					<dim>1</dim>
					<dim>128</dim>
					<dim>40</dim>
					<dim>40</dim>
				</port>
			</output>
		</layer>
		<layer id="235" name="model.6.m.0.cv2.conv.weight_compressed" type="Const" version="opset1">
			<data element_type="f16" offset="1241700" shape="128, 128, 3, 3" size="294912"/>
			<output>
				<port id="0" precision="FP16">
					<dim>128</dim>
					<dim>128</dim>
					<dim>3</dim>
					<dim>3</dim>
				</port>
			</output>
		</layer>
		<layer id="236" name="model.6.m.0.cv2.conv.weight" type="Convert" version="opset1">
			<data destination_type="f32"/>
			<rt_info>
				<attribute name="decompression" version="0"/>
				<attribute name="fused_names" value="model.6.m.0.cv2.conv.weight" version="0"/>
			</rt_info>
			<input>
				<port id="0" precision="FP16">
					<dim>128</dim>
					<dim>128</dim>
					<dim>3</dim>
					<dim>3</dim>
				</port>
			</input>
			<output>
				<port id="1" names="model.6.m.0.cv2.conv.weight" precision="FP32">
					<dim>128</dim>
					<dim>128</dim>
					<dim>3</dim>
					<dim>3</dim>
				</port>
			</output>
		</layer>
		<layer id="237" name="Convolution_1132" type="Convolution" version="opset1">
			<data auto_pad="explicit" dilations="1, 1" pads_begin="1, 1" pads_end="1, 1" strides="1, 1"/>
			<rt_info>
				<attribute name="fused_names" value="Convolution_1132" version="0"/>
			</rt_info>
			<input>
				<port id="0" precision="FP32">
					<dim>1</dim>
					<dim>128</dim>
					<dim>40</dim>
					<dim>40</dim>
				</port>
				<port id="1" precision="FP32">
					<dim>128</dim>
					<dim>128</dim>
					<dim>3</dim>
					<dim>3</dim>
				</port>
			</input>
			<output>
				<port id="2" precision="FP32">
					<dim>1</dim>
					<dim>128</dim>
					<dim>40</dim>
					<dim>40</dim>
				</port>
			</output>
		</layer>
		<layer id="238" name="Reshape_1152_compressed" type="Const" version="opset1">
			<data element_type="f16" offset="1536612" shape="1, 128, 1, 1" size="256"/>
			<output>
				<port id="0" precision="FP16">
					<dim>1</dim>
					<dim>128</dim>
					<dim>1</dim>
					<dim>1</dim>
				</port>
			</output>
		</layer>
		<layer id="239" name="Reshape_1152" type="Convert" version="opset1">
			<data destination_type="f32"/>
			<rt_info>
				<attribute name="decompression" version="0"/>
			</rt_info>
			<input>
				<port id="0" precision="FP16">
					<dim>1</dim>
					<dim>128</dim>
					<dim>1</dim>
					<dim>1</dim>
				</port>
			</input>
			<output>
				<port id="1" precision="FP32">
					<dim>1</dim>
					<dim>128</dim>
					<dim>1</dim>
					<dim>1</dim>
				</port>
			</output>
		</layer>
		<layer id="240" name="257" type="Add" version="opset1">
			<data auto_broadcast="numpy"/>
			<rt_info>
				<attribute name="fused_names" value="257, Concat_1151, Reshape_1152" version="0"/>
			</rt_info>
			<input>
				<port id="0" precision="FP32">
					<dim>1</dim>
					<dim>128</dim>
					<dim>40</dim>
					<dim>40</dim>
				</port>
				<port id="1" precision="FP32">
					<dim>1</dim>
					<dim>128</dim>
					<dim>1</dim>
					<dim>1</dim>
				</port>
			</input>
			<output>
				<port id="2" names="257" precision="FP32">
					<dim>1</dim>
					<dim>128</dim>
					<dim>40</dim>
					<dim>40</dim>
				</port>
			</output>
		</layer>
		<layer id="241" name="Constant_1180_compressed" type="Const" version="opset1">
			<data element_type="f16" offset="7202" shape="1" size="2"/>
			<output>
				<port id="0" precision="FP16">
					<dim>1</dim>
				</port>
			</output>
		</layer>
		<layer id="242" name="Constant_1180" type="Convert" version="opset1">
			<data destination_type="f32"/>
			<rt_info>
				<attribute name="decompression" version="0"/>
				<attribute name="fused_names" value="Constant_1180" version="0"/>
			</rt_info>
			<input>
				<port id="0" precision="FP16">
					<dim>1</dim>
				</port>
			</input>
			<output>
				<port id="1" precision="FP32">
					<dim>1</dim>
				</port>
			</output>
		</layer>
		<layer id="243" name="258" type="PReLU" version="opset1">
			<rt_info>
				<attribute name="fused_names" value="258" version="0"/>
			</rt_info>
			<input>
				<port id="0" precision="FP32">
					<dim>1</dim>
					<dim>128</dim>
					<dim>40</dim>
					<dim>40</dim>
				</port>
				<port id="1" precision="FP32">
					<dim>1</dim>
				</port>
			</input>
			<output>
				<port id="2" names="258" precision="FP32">
					<dim>1</dim>
					<dim>128</dim>
					<dim>40</dim>
					<dim>40</dim>
				</port>
			</output>
		</layer>
		<layer id="244" name="259" type="Add" version="opset1">
			<data auto_broadcast="numpy"/>
			<rt_info>
				<attribute name="fused_names" value="259" version="0"/>
			</rt_info>
			<input>
				<port id="0" precision="FP32">
					<dim>1</dim>
					<dim>128</dim>
					<dim>40</dim>
					<dim>40</dim>
				</port>
				<port id="1" precision="FP32">
					<dim>1</dim>
					<dim>128</dim>
					<dim>40</dim>
					<dim>40</dim>
				</port>
			</input>
			<output>
				<port id="2" names="259" precision="FP32">
					<dim>1</dim>
					<dim>128</dim>
					<dim>40</dim>
					<dim>40</dim>
				</port>
			</output>
		</layer>
		<layer id="245" name="model.6.m.1.cv1.conv.weight_compressed" type="Const" version="opset1">
			<data element_type="f16" offset="1536868" shape="128, 128, 1, 1" size="32768"/>
			<output>
				<port id="0" precision="FP16">
					<dim>128</dim>
					<dim>128</dim>
					<dim>1</dim>
					<dim>1</dim>
				</port>
			</output>
		</layer>
		<layer id="246" name="model.6.m.1.cv1.conv.weight" type="Convert" version="opset1">
			<data destination_type="f32"/>
			<rt_info>
				<attribute name="decompression" version="0"/>
				<attribute name="fused_names" value="model.6.m.1.cv1.conv.weight" version="0"/>
			</rt_info>
			<input>
				<port id="0" precision="FP16">
					<dim>128</dim>
					<dim>128</dim>
					<dim>1</dim>
					<dim>1</dim>
				</port>
			</input>
			<output>
				<port id="1" names="model.6.m.1.cv1.conv.weight" precision="FP32">
					<dim>128</dim>
					<dim>128</dim>
					<dim>1</dim>
					<dim>1</dim>
				</port>
			</output>
		</layer>
		<layer id="247" name="Convolution_1183" type="Convolution" version="opset1">
			<data auto_pad="explicit" dilations="1, 1" pads_begin="0, 0" pads_end="0, 0" strides="1, 1"/>
			<rt_info>
				<attribute name="fused_names" value="Convolution_1183" version="0"/>
			</rt_info>
			<input>
				<port id="0" precision="FP32">
					<dim>1</dim>
					<dim>128</dim>
					<dim>40</dim>
					<dim>40</dim>
				</port>
				<port id="1" precision="FP32">
					<dim>128</dim>
					<dim>128</dim>
					<dim>1</dim>
					<dim>1</dim>
				</port>
			</input>
			<output>
				<port id="2" precision="FP32">
					<dim>1</dim>
					<dim>128</dim>
					<dim>40</dim>
					<dim>40</dim>
				</port>
			</output>
		</layer>
		<layer id="248" name="Reshape_1203_compressed" type="Const" version="opset1">
			<data element_type="f16" offset="1569636" shape="1, 128, 1, 1" size="256"/>
			<output>
				<port id="0" precision="FP16">
					<dim>1</dim>
					<dim>128</dim>
					<dim>1</dim>
					<dim>1</dim>
				</port>
			</output>
		</layer>
		<layer id="249" name="Reshape_1203" type="Convert" version="opset1">
			<data destination_type="f32"/>
			<rt_info>
				<attribute name="decompression" version="0"/>
			</rt_info>
			<input>
				<port id="0" precision="FP16">
					<dim>1</dim>
					<dim>128</dim>
					<dim>1</dim>
					<dim>1</dim>
				</port>
			</input>
			<output>
				<port id="1" precision="FP32">
					<dim>1</dim>
					<dim>128</dim>
					<dim>1</dim>
					<dim>1</dim>
				</port>
			</output>
		</layer>
		<layer id="250" name="260" type="Add" version="opset1">
			<data auto_broadcast="numpy"/>
			<rt_info>
				<attribute name="fused_names" value="260, Concat_1202, Reshape_1203" version="0"/>
			</rt_info>
			<input>
				<port id="0" precision="FP32">
					<dim>1</dim>
					<dim>128</dim>
					<dim>40</dim>
					<dim>40</dim>
				</port>
				<port id="1" precision="FP32">
					<dim>1</dim>
					<dim>128</dim>
					<dim>1</dim>
					<dim>1</dim>
				</port>
			</input>
			<output>
				<port id="2" names="260" precision="FP32">
					<dim>1</dim>
					<dim>128</dim>
					<dim>40</dim>
					<dim>40</dim>
				</port>
			</output>
		</layer>
		<layer id="251" name="Constant_1231_compressed" type="Const" version="opset1">
			<data element_type="f16" offset="7202" shape="1" size="2"/>
			<output>
				<port id="0" precision="FP16">
					<dim>1</dim>
				</port>
			</output>
		</layer>
		<layer id="252" name="Constant_1231" type="Convert" version="opset1">
			<data destination_type="f32"/>
			<rt_info>
				<attribute name="decompression" version="0"/>
				<attribute name="fused_names" value="Constant_1231" version="0"/>
			</rt_info>
			<input>
				<port id="0" precision="FP16">
					<dim>1</dim>
				</port>
			</input>
			<output>
				<port id="1" precision="FP32">
					<dim>1</dim>
				</port>
			</output>
		</layer>
		<layer id="253" name="261" type="PReLU" version="opset1">
			<rt_info>
				<attribute name="fused_names" value="261" version="0"/>
			</rt_info>
			<input>
				<port id="0" precision="FP32">
					<dim>1</dim>
					<dim>128</dim>
					<dim>40</dim>
					<dim>40</dim>
				</port>
				<port id="1" precision="FP32">
					<dim>1</dim>
				</port>
			</input>
			<output>
				<port id="2" names="261" precision="FP32">
					<dim>1</dim>
					<dim>128</dim>
					<dim>40</dim>
					<dim>40</dim>
				</port>
			</output>
		</layer>
		<layer id="254" name="model.6.m.1.cv2.conv.weight_compressed" type="Const" version="opset1">
			<data element_type="f16" offset="1569892" shape="128, 128, 3, 3" size="294912"/>
			<output>
				<port id="0" precision="FP16">
					<dim>128</dim>
					<dim>128</dim>
					<dim>3</dim>
					<dim>3</dim>
				</port>
			</output>
		</layer>
		<layer id="255" name="model.6.m.1.cv2.conv.weight" type="Convert" version="opset1">
			<data destination_type="f32"/>
			<rt_info>
				<attribute name="decompression" version="0"/>
				<attribute name="fused_names" value="model.6.m.1.cv2.conv.weight" version="0"/>
			</rt_info>
			<input>
				<port id="0" precision="FP16">
					<dim>128</dim>
					<dim>128</dim>
					<dim>3</dim>
					<dim>3</dim>
				</port>
			</input>
			<output>
				<port id="1" names="model.6.m.1.cv2.conv.weight" precision="FP32">
					<dim>128</dim>
					<dim>128</dim>
					<dim>3</dim>
					<dim>3</dim>
				</port>
			</output>
		</layer>
		<layer id="256" name="Convolution_1233" type="Convolution" version="opset1">
			<data auto_pad="explicit" dilations="1, 1" pads_begin="1, 1" pads_end="1, 1" strides="1, 1"/>
			<rt_info>
				<attribute name="fused_names" value="Convolution_1233" version="0"/>
			</rt_info>
			<input>
				<port id="0" precision="FP32">
					<dim>1</dim>
					<dim>128</dim>
					<dim>40</dim>
					<dim>40</dim>
				</port>
				<port id="1" precision="FP32">
					<dim>128</dim>
					<dim>128</dim>
					<dim>3</dim>
					<dim>3</dim>
				</port>
			</input>
			<output>
				<port id="2" precision="FP32">
					<dim>1</dim>
					<dim>128</dim>
					<dim>40</dim>
					<dim>40</dim>
				</port>
			</output>
		</layer>
		<layer id="257" name="Reshape_1253_compressed" type="Const" version="opset1">
			<data element_type="f16" offset="1864804" shape="1, 128, 1, 1" size="256"/>
			<output>
				<port id="0" precision="FP16">
					<dim>1</dim>
					<dim>128</dim>
					<dim>1</dim>
					<dim>1</dim>
				</port>
			</output>
		</layer>
		<layer id="258" name="Reshape_1253" type="Convert" version="opset1">
			<data destination_type="f32"/>
			<rt_info>
				<attribute name="decompression" version="0"/>
			</rt_info>
			<input>
				<port id="0" precision="FP16">
					<dim>1</dim>
					<dim>128</dim>
					<dim>1</dim>
					<dim>1</dim>
				</port>
			</input>
			<output>
				<port id="1" precision="FP32">
					<dim>1</dim>
					<dim>128</dim>
					<dim>1</dim>
					<dim>1</dim>
				</port>
			</output>
		</layer>
		<layer id="259" name="262" type="Add" version="opset1">
			<data auto_broadcast="numpy"/>
			<rt_info>
				<attribute name="fused_names" value="262, Concat_1252, Reshape_1253" version="0"/>
			</rt_info>
			<input>
				<port id="0" precision="FP32">
					<dim>1</dim>
					<dim>128</dim>
					<dim>40</dim>
					<dim>40</dim>
				</port>
				<port id="1" precision="FP32">
					<dim>1</dim>
					<dim>128</dim>
					<dim>1</dim>
					<dim>1</dim>
				</port>
			</input>
			<output>
				<port id="2" names="262" precision="FP32">
					<dim>1</dim>
					<dim>128</dim>
					<dim>40</dim>
					<dim>40</dim>
				</port>
			</output>
		</layer>
		<layer id="260" name="Constant_1281_compressed" type="Const" version="opset1">
			<data element_type="f16" offset="7202" shape="1" size="2"/>
			<output>
				<port id="0" precision="FP16">
					<dim>1</dim>
				</port>
			</output>
		</layer>
		<layer id="261" name="Constant_1281" type="Convert" version="opset1">
			<data destination_type="f32"/>
			<rt_info>
				<attribute name="decompression" version="0"/>
				<attribute name="fused_names" value="Constant_1281" version="0"/>
			</rt_info>
			<input>
				<port id="0" precision="FP16">
					<dim>1</dim>
				</port>
			</input>
			<output>
				<port id="1" precision="FP32">
					<dim>1</dim>
				</port>
			</output>
		</layer>
		<layer id="262" name="263" type="PReLU" version="opset1">
			<rt_info>
				<attribute name="fused_names" value="263" version="0"/>
			</rt_info>
			<input>
				<port id="0" precision="FP32">
					<dim>1</dim>
					<dim>128</dim>
					<dim>40</dim>
					<dim>40</dim>
				</port>
				<port id="1" precision="FP32">
					<dim>1</dim>
				</port>
			</input>
			<output>
				<port id="2" names="263" precision="FP32">
					<dim>1</dim>
					<dim>128</dim>
					<dim>40</dim>
					<dim>40</dim>
				</port>
			</output>
		</layer>
		<layer id="263" name="264" type="Add" version="opset1">
			<data auto_broadcast="numpy"/>
			<rt_info>
				<attribute name="fused_names" value="264" version="0"/>
			</rt_info>
			<input>
				<port id="0" precision="FP32">
					<dim>1</dim>
					<dim>128</dim>
					<dim>40</dim>
					<dim>40</dim>
				</port>
				<port id="1" precision="FP32">
					<dim>1</dim>
					<dim>128</dim>
					<dim>40</dim>
					<dim>40</dim>
				</port>
			</input>
			<output>
				<port id="2" names="264" precision="FP32">
					<dim>1</dim>
					<dim>128</dim>
					<dim>40</dim>
					<dim>40</dim>
				</port>
			</output>
		</layer>
		<layer id="264" name="model.6.m.2.cv1.conv.weight_compressed" type="Const" version="opset1">
			<data element_type="f16" offset="1865060" shape="128, 128, 1, 1" size="32768"/>
			<output>
				<port id="0" precision="FP16">
					<dim>128</dim>
					<dim>128</dim>
					<dim>1</dim>
					<dim>1</dim>
				</port>
			</output>
		</layer>
		<layer id="265" name="model.6.m.2.cv1.conv.weight" type="Convert" version="opset1">
			<data destination_type="f32"/>
			<rt_info>
				<attribute name="decompression" version="0"/>
				<attribute name="fused_names" value="model.6.m.2.cv1.conv.weight" version="0"/>
			</rt_info>
			<input>
				<port id="0" precision="FP16">
					<dim>128</dim>
					<dim>128</dim>
					<dim>1</dim>
					<dim>1</dim>
				</port>
			</input>
			<output>
				<port id="1" names="model.6.m.2.cv1.conv.weight" precision="FP32">
					<dim>128</dim>
					<dim>128</dim>
					<dim>1</dim>
					<dim>1</dim>
				</port>
			</output>
		</layer>
		<layer id="266" name="Convolution_1284" type="Convolution" version="opset1">
			<data auto_pad="explicit" dilations="1, 1" pads_begin="0, 0" pads_end="0, 0" strides="1, 1"/>
			<rt_info>
				<attribute name="fused_names" value="Convolution_1284" version="0"/>
			</rt_info>
			<input>
				<port id="0" precision="FP32">
					<dim>1</dim>
					<dim>128</dim>
					<dim>40</dim>
					<dim>40</dim>
				</port>
				<port id="1" precision="FP32">
					<dim>128</dim>
					<dim>128</dim>
					<dim>1</dim>
					<dim>1</dim>
				</port>
			</input>
			<output>
				<port id="2" precision="FP32">
					<dim>1</dim>
					<dim>128</dim>
					<dim>40</dim>
					<dim>40</dim>
				</port>
			</output>
		</layer>
		<layer id="267" name="Reshape_1304_compressed" type="Const" version="opset1">
			<data element_type="f16" offset="1897828" shape="1, 128, 1, 1" size="256"/>
			<output>
				<port id="0" precision="FP16">
					<dim>1</dim>
					<dim>128</dim>
					<dim>1</dim>
					<dim>1</dim>
				</port>
			</output>
		</layer>
		<layer id="268" name="Reshape_1304" type="Convert" version="opset1">
			<data destination_type="f32"/>
			<rt_info>
				<attribute name="decompression" version="0"/>
			</rt_info>
			<input>
				<port id="0" precision="FP16">
					<dim>1</dim>
					<dim>128</dim>
					<dim>1</dim>
					<dim>1</dim>
				</port>
			</input>
			<output>
				<port id="1" precision="FP32">
					<dim>1</dim>
					<dim>128</dim>
					<dim>1</dim>
					<dim>1</dim>
				</port>
			</output>
		</layer>
		<layer id="269" name="265" type="Add" version="opset1">
			<data auto_broadcast="numpy"/>
			<rt_info>
				<attribute name="fused_names" value="265, Concat_1303, Reshape_1304" version="0"/>
			</rt_info>
			<input>
				<port id="0" precision="FP32">
					<dim>1</dim>
					<dim>128</dim>
					<dim>40</dim>
					<dim>40</dim>
				</port>
				<port id="1" precision="FP32">
					<dim>1</dim>
					<dim>128</dim>
					<dim>1</dim>
					<dim>1</dim>
				</port>
			</input>
			<output>
				<port id="2" names="265" precision="FP32">
					<dim>1</dim>
					<dim>128</dim>
					<dim>40</dim>
					<dim>40</dim>
				</port>
			</output>
		</layer>
		<layer id="270" name="Constant_1332_compressed" type="Const" version="opset1">
			<data element_type="f16" offset="7202" shape="1" size="2"/>
			<output>
				<port id="0" precision="FP16">
					<dim>1</dim>
				</port>
			</output>
		</layer>
		<layer id="271" name="Constant_1332" type="Convert" version="opset1">
			<data destination_type="f32"/>
			<rt_info>
				<attribute name="decompression" version="0"/>
				<attribute name="fused_names" value="Constant_1332" version="0"/>
			</rt_info>
			<input>
				<port id="0" precision="FP16">
					<dim>1</dim>
				</port>
			</input>
			<output>
				<port id="1" precision="FP32">
					<dim>1</dim>
				</port>
			</output>
		</layer>
		<layer id="272" name="266" type="PReLU" version="opset1">
			<rt_info>
				<attribute name="fused_names" value="266" version="0"/>
			</rt_info>
			<input>
				<port id="0" precision="FP32">
					<dim>1</dim>
					<dim>128</dim>
					<dim>40</dim>
					<dim>40</dim>
				</port>
				<port id="1" precision="FP32">
					<dim>1</dim>
				</port>
			</input>
			<output>
				<port id="2" names="266" precision="FP32">
					<dim>1</dim>
					<dim>128</dim>
					<dim>40</dim>
					<dim>40</dim>
				</port>
			</output>
		</layer>
		<layer id="273" name="model.6.m.2.cv2.conv.weight_compressed" type="Const" version="opset1">
			<data element_type="f16" offset="1898084" shape="128, 128, 3, 3" size="294912"/>
			<output>
				<port id="0" precision="FP16">
					<dim>128</dim>
					<dim>128</dim>
					<dim>3</dim>
					<dim>3</dim>
				</port>
			</output>
		</layer>
		<layer id="274" name="model.6.m.2.cv2.conv.weight" type="Convert" version="opset1">
			<data destination_type="f32"/>
			<rt_info>
				<attribute name="decompression" version="0"/>
				<attribute name="fused_names" value="model.6.m.2.cv2.conv.weight" version="0"/>
			</rt_info>
			<input>
				<port id="0" precision="FP16">
					<dim>128</dim>
					<dim>128</dim>
					<dim>3</dim>
					<dim>3</dim>
				</port>
			</input>
			<output>
				<port id="1" names="model.6.m.2.cv2.conv.weight" precision="FP32">
					<dim>128</dim>
					<dim>128</dim>
					<dim>3</dim>
					<dim>3</dim>
				</port>
			</output>
		</layer>
		<layer id="275" name="Convolution_1334" type="Convolution" version="opset1">
			<data auto_pad="explicit" dilations="1, 1" pads_begin="1, 1" pads_end="1, 1" strides="1, 1"/>
			<rt_info>
				<attribute name="fused_names" value="Convolution_1334" version="0"/>
			</rt_info>
			<input>
				<port id="0" precision="FP32">
					<dim>1</dim>
					<dim>128</dim>
					<dim>40</dim>
					<dim>40</dim>
				</port>
				<port id="1" precision="FP32">
					<dim>128</dim>
					<dim>128</dim>
					<dim>3</dim>
					<dim>3</dim>
				</port>
			</input>
			<output>
				<port id="2" precision="FP32">
					<dim>1</dim>
					<dim>128</dim>
					<dim>40</dim>
					<dim>40</dim>
				</port>
			</output>
		</layer>
		<layer id="276" name="Reshape_1354_compressed" type="Const" version="opset1">
			<data element_type="f16" offset="2192996" shape="1, 128, 1, 1" size="256"/>
			<output>
				<port id="0" precision="FP16">
					<dim>1</dim>
					<dim>128</dim>
					<dim>1</dim>
					<dim>1</dim>
				</port>
			</output>
		</layer>
		<layer id="277" name="Reshape_1354" type="Convert" version="opset1">
			<data destination_type="f32"/>
			<rt_info>
				<attribute name="decompression" version="0"/>
			</rt_info>
			<input>
				<port id="0" precision="FP16">
					<dim>1</dim>
					<dim>128</dim>
					<dim>1</dim>
					<dim>1</dim>
				</port>
			</input>
			<output>
				<port id="1" precision="FP32">
					<dim>1</dim>
					<dim>128</dim>
					<dim>1</dim>
					<dim>1</dim>
				</port>
			</output>
		</layer>
		<layer id="278" name="267" type="Add" version="opset1">
			<data auto_broadcast="numpy"/>
			<rt_info>
				<attribute name="fused_names" value="267, Concat_1353, Reshape_1354" version="0"/>
			</rt_info>
			<input>
				<port id="0" precision="FP32">
					<dim>1</dim>
					<dim>128</dim>
					<dim>40</dim>
					<dim>40</dim>
				</port>
				<port id="1" precision="FP32">
					<dim>1</dim>
					<dim>128</dim>
					<dim>1</dim>
					<dim>1</dim>
				</port>
			</input>
			<output>
				<port id="2" names="267" precision="FP32">
					<dim>1</dim>
					<dim>128</dim>
					<dim>40</dim>
					<dim>40</dim>
				</port>
			</output>
		</layer>
		<layer id="279" name="Constant_1382_compressed" type="Const" version="opset1">
			<data element_type="f16" offset="7202" shape="1" size="2"/>
			<output>
				<port id="0" precision="FP16">
					<dim>1</dim>
				</port>
			</output>
		</layer>
		<layer id="280" name="Constant_1382" type="Convert" version="opset1">
			<data destination_type="f32"/>
			<rt_info>
				<attribute name="decompression" version="0"/>
				<attribute name="fused_names" value="Constant_1382" version="0"/>
			</rt_info>
			<input>
				<port id="0" precision="FP16">
					<dim>1</dim>
				</port>
			</input>
			<output>
				<port id="1" precision="FP32">
					<dim>1</dim>
				</port>
			</output>
		</layer>
		<layer id="281" name="268" type="PReLU" version="opset1">
			<rt_info>
				<attribute name="fused_names" value="268" version="0"/>
			</rt_info>
			<input>
				<port id="0" precision="FP32">
					<dim>1</dim>
					<dim>128</dim>
					<dim>40</dim>
					<dim>40</dim>
				</port>
				<port id="1" precision="FP32">
					<dim>1</dim>
				</port>
			</input>
			<output>
				<port id="2" names="268" precision="FP32">
					<dim>1</dim>
					<dim>128</dim>
					<dim>40</dim>
					<dim>40</dim>
				</port>
			</output>
		</layer>
		<layer id="282" name="269" type="Add" version="opset1">
			<data auto_broadcast="numpy"/>
			<rt_info>
				<attribute name="fused_names" value="269" version="0"/>
			</rt_info>
			<input>
				<port id="0" precision="FP32">
					<dim>1</dim>
					<dim>128</dim>
					<dim>40</dim>
					<dim>40</dim>
				</port>
				<port id="1" precision="FP32">
					<dim>1</dim>
					<dim>128</dim>
					<dim>40</dim>
					<dim>40</dim>
				</port>
			</input>
			<output>
				<port id="2" names="269" precision="FP32">
					<dim>1</dim>
					<dim>128</dim>
					<dim>40</dim>
					<dim>40</dim>
				</port>
			</output>
		</layer>
		<layer id="283" name="model.6.cv3.weight_compressed" type="Const" version="opset1">
			<data element_type="f16" offset="2193252" shape="128, 128, 1, 1" size="32768"/>
			<output>
				<port id="0" precision="FP16">
					<dim>128</dim>
					<dim>128</dim>
					<dim>1</dim>
					<dim>1</dim>
				</port>
			</output>
		</layer>
		<layer id="284" name="model.6.cv3.weight" type="Convert" version="opset1">
			<data destination_type="f32"/>
			<rt_info>
				<attribute name="decompression" version="0"/>
				<attribute name="fused_names" value="model.6.cv3.weight" version="0"/>
			</rt_info>
			<input>
				<port id="0" precision="FP16">
					<dim>128</dim>
					<dim>128</dim>
					<dim>1</dim>
					<dim>1</dim>
				</port>
			</input>
			<output>
				<port id="1" names="model.6.cv3.weight" precision="FP32">
					<dim>128</dim>
					<dim>128</dim>
					<dim>1</dim>
					<dim>1</dim>
				</port>
			</output>
		</layer>
		<layer id="285" name="270" type="Convolution" version="opset1">
			<data auto_pad="explicit" dilations="1, 1" pads_begin="0, 0" pads_end="0, 0" strides="1, 1"/>
			<rt_info>
				<attribute name="fused_names" value="270" version="0"/>
			</rt_info>
			<input>
				<port id="0" precision="FP32">
					<dim>1</dim>
					<dim>128</dim>
					<dim>40</dim>
					<dim>40</dim>
				</port>
				<port id="1" precision="FP32">
					<dim>128</dim>
					<dim>128</dim>
					<dim>1</dim>
					<dim>1</dim>
				</port>
			</input>
			<output>
				<port id="2" names="270" precision="FP32">
					<dim>1</dim>
					<dim>128</dim>
					<dim>40</dim>
					<dim>40</dim>
				</port>
			</output>
		</layer>
		<layer id="286" name="model.6.cv2.weight_compressed" type="Const" version="opset1">
			<data element_type="f16" offset="2226020" shape="128, 256, 1, 1" size="65536"/>
			<output>
				<port id="0" precision="FP16">
					<dim>128</dim>
					<dim>256</dim>
					<dim>1</dim>
					<dim>1</dim>
				</port>
			</output>
		</layer>
		<layer id="287" name="model.6.cv2.weight" type="Convert" version="opset1">
			<data destination_type="f32"/>
			<rt_info>
				<attribute name="decompression" version="0"/>
				<attribute name="fused_names" value="model.6.cv2.weight" version="0"/>
			</rt_info>
			<input>
				<port id="0" precision="FP16">
					<dim>128</dim>
					<dim>256</dim>
					<dim>1</dim>
					<dim>1</dim>
				</port>
			</input>
			<output>
				<port id="1" names="model.6.cv2.weight" precision="FP32">
					<dim>128</dim>
					<dim>256</dim>
					<dim>1</dim>
					<dim>1</dim>
				</port>
			</output>
		</layer>
		<layer id="288" name="271" type="Convolution" version="opset1">
			<data auto_pad="explicit" dilations="1, 1" pads_begin="0, 0" pads_end="0, 0" strides="1, 1"/>
			<rt_info>
				<attribute name="fused_names" value="271" version="0"/>
			</rt_info>
			<input>
				<port id="0" precision="FP32">
					<dim>1</dim>
					<dim>256</dim>
					<dim>40</dim>
					<dim>40</dim>
				</port>
				<port id="1" precision="FP32">
					<dim>128</dim>
					<dim>256</dim>
					<dim>1</dim>
					<dim>1</dim>
				</port>
			</input>
			<output>
				<port id="2" names="271" precision="FP32">
					<dim>1</dim>
					<dim>128</dim>
					<dim>40</dim>
					<dim>40</dim>
				</port>
			</output>
		</layer>
		<layer id="289" name="272" type="Concat" version="opset1">
			<data axis="1"/>
			<rt_info>
				<attribute name="fused_names" value="272" version="0"/>
			</rt_info>
			<input>
				<port id="0" precision="FP32">
					<dim>1</dim>
					<dim>128</dim>
					<dim>40</dim>
					<dim>40</dim>
				</port>
				<port id="1" precision="FP32">
					<dim>1</dim>
					<dim>128</dim>
					<dim>40</dim>
					<dim>40</dim>
				</port>
			</input>
			<output>
				<port id="2" names="272" precision="FP32">
					<dim>1</dim>
					<dim>256</dim>
					<dim>40</dim>
					<dim>40</dim>
				</port>
			</output>
		</layer>
		<layer id="290" name="Constant_9878_compressed" type="Const" version="opset1">
			<data element_type="f16" offset="2291556" shape="1, 256, 1, 1" size="512"/>
			<output>
				<port id="0" precision="FP16">
					<dim>1</dim>
					<dim>256</dim>
					<dim>1</dim>
					<dim>1</dim>
				</port>
			</output>
		</layer>
		<layer id="291" name="Constant_9878" type="Convert" version="opset1">
			<data destination_type="f32"/>
			<rt_info>
				<attribute name="decompression" version="0"/>
				<attribute name="fused_names" value="273, model.6.bn.bias, model.6.bn.running_mean, model.6.bn.running_var, model.6.bn.weight" version="0"/>
			</rt_info>
			<input>
				<port id="0" precision="FP16">
					<dim>1</dim>
					<dim>256</dim>
					<dim>1</dim>
					<dim>1</dim>
				</port>
			</input>
			<output>
				<port id="1" precision="FP32">
					<dim>1</dim>
					<dim>256</dim>
					<dim>1</dim>
					<dim>1</dim>
				</port>
			</output>
		</layer>
		<layer id="292" name="Multiply_10526" type="Multiply" version="opset1">
			<data auto_broadcast="numpy"/>
			<rt_info>
				<attribute name="fused_names" value="273, model.6.bn.bias, model.6.bn.running_mean, model.6.bn.running_var, model.6.bn.weight" version="0"/>
			</rt_info>
			<input>
				<port id="0" precision="FP32">
					<dim>1</dim>
					<dim>256</dim>
					<dim>40</dim>
					<dim>40</dim>
				</port>
				<port id="1" precision="FP32">
					<dim>1</dim>
					<dim>256</dim>
					<dim>1</dim>
					<dim>1</dim>
				</port>
			</input>
			<output>
				<port id="2" precision="FP32">
					<dim>1</dim>
					<dim>256</dim>
					<dim>40</dim>
					<dim>40</dim>
				</port>
			</output>
		</layer>
		<layer id="293" name="Constant_10531_compressed" type="Const" version="opset1">
			<data element_type="f16" offset="2292068" shape="1, 256, 1, 1" size="512"/>
			<output>
				<port id="0" precision="FP16">
					<dim>1</dim>
					<dim>256</dim>
					<dim>1</dim>
					<dim>1</dim>
				</port>
			</output>
		</layer>
		<layer id="294" name="Constant_10531" type="Convert" version="opset1">
			<data destination_type="f32"/>
			<rt_info>
				<attribute name="decompression" version="0"/>
			</rt_info>
			<input>
				<port id="0" precision="FP16">
					<dim>1</dim>
					<dim>256</dim>
					<dim>1</dim>
					<dim>1</dim>
				</port>
			</input>
			<output>
				<port id="1" precision="FP32">
					<dim>1</dim>
					<dim>256</dim>
					<dim>1</dim>
					<dim>1</dim>
				</port>
			</output>
		</layer>
		<layer id="295" name="273" type="Add" version="opset1">
			<data auto_broadcast="numpy"/>
			<rt_info>
				<attribute name="fused_names" value="273, model.6.bn.bias, model.6.bn.running_mean, model.6.bn.running_var, model.6.bn.weight" version="0"/>
			</rt_info>
			<input>
				<port id="0" precision="FP32">
					<dim>1</dim>
					<dim>256</dim>
					<dim>40</dim>
					<dim>40</dim>
				</port>
				<port id="1" precision="FP32">
					<dim>1</dim>
					<dim>256</dim>
					<dim>1</dim>
					<dim>1</dim>
				</port>
			</input>
			<output>
				<port id="2" names="273" precision="FP32">
					<dim>1</dim>
					<dim>256</dim>
					<dim>40</dim>
					<dim>40</dim>
				</port>
			</output>
		</layer>
		<layer id="296" name="Constant_1391_compressed" type="Const" version="opset1">
			<data element_type="f16" offset="7202" shape="1" size="2"/>
			<output>
				<port id="0" precision="FP16">
					<dim>1</dim>
				</port>
			</output>
		</layer>
		<layer id="297" name="Constant_1391" type="Convert" version="opset1">
			<data destination_type="f32"/>
			<rt_info>
				<attribute name="decompression" version="0"/>
				<attribute name="fused_names" value="Constant_1391" version="0"/>
			</rt_info>
			<input>
				<port id="0" precision="FP16">
					<dim>1</dim>
				</port>
			</input>
			<output>
				<port id="1" precision="FP32">
					<dim>1</dim>
				</port>
			</output>
		</layer>
		<layer id="298" name="274" type="PReLU" version="opset1">
			<rt_info>
				<attribute name="fused_names" value="274" version="0"/>
			</rt_info>
			<input>
				<port id="0" precision="FP32">
					<dim>1</dim>
					<dim>256</dim>
					<dim>40</dim>
					<dim>40</dim>
				</port>
				<port id="1" precision="FP32">
					<dim>1</dim>
				</port>
			</input>
			<output>
				<port id="2" names="274" precision="FP32">
					<dim>1</dim>
					<dim>256</dim>
					<dim>40</dim>
					<dim>40</dim>
				</port>
			</output>
		</layer>
		<layer id="299" name="model.6.cv4.conv.weight_compressed" type="Const" version="opset1">
			<data element_type="f16" offset="2292580" shape="256, 256, 1, 1" size="131072"/>
			<output>
				<port id="0" precision="FP16">
					<dim>256</dim>
					<dim>256</dim>
					<dim>1</dim>
					<dim>1</dim>
				</port>
			</output>
		</layer>
		<layer id="300" name="model.6.cv4.conv.weight" type="Convert" version="opset1">
			<data destination_type="f32"/>
			<rt_info>
				<attribute name="decompression" version="0"/>
				<attribute name="fused_names" value="model.6.cv4.conv.weight" version="0"/>
			</rt_info>
			<input>
				<port id="0" precision="FP16">
					<dim>256</dim>
					<dim>256</dim>
					<dim>1</dim>
					<dim>1</dim>
				</port>
			</input>
			<output>
				<port id="1" names="model.6.cv4.conv.weight" precision="FP32">
					<dim>256</dim>
					<dim>256</dim>
					<dim>1</dim>
					<dim>1</dim>
				</port>
			</output>
		</layer>
		<layer id="301" name="Convolution_1393" type="Convolution" version="opset1">
			<data auto_pad="explicit" dilations="1, 1" pads_begin="0, 0" pads_end="0, 0" strides="1, 1"/>
			<rt_info>
				<attribute name="fused_names" value="Convolution_1393" version="0"/>
			</rt_info>
			<input>
				<port id="0" precision="FP32">
					<dim>1</dim>
					<dim>256</dim>
					<dim>40</dim>
					<dim>40</dim>
				</port>
				<port id="1" precision="FP32">
					<dim>256</dim>
					<dim>256</dim>
					<dim>1</dim>
					<dim>1</dim>
				</port>
			</input>
			<output>
				<port id="2" precision="FP32">
					<dim>1</dim>
					<dim>256</dim>
					<dim>40</dim>
					<dim>40</dim>
				</port>
			</output>
		</layer>
		<layer id="302" name="Reshape_1413_compressed" type="Const" version="opset1">
			<data element_type="f16" offset="2423652" shape="1, 256, 1, 1" size="512"/>
			<output>
				<port id="0" precision="FP16">
					<dim>1</dim>
					<dim>256</dim>
					<dim>1</dim>
					<dim>1</dim>
				</port>
			</output>
		</layer>
		<layer id="303" name="Reshape_1413" type="Convert" version="opset1">
			<data destination_type="f32"/>
			<rt_info>
				<attribute name="decompression" version="0"/>
			</rt_info>
			<input>
				<port id="0" precision="FP16">
					<dim>1</dim>
					<dim>256</dim>
					<dim>1</dim>
					<dim>1</dim>
				</port>
			</input>
			<output>
				<port id="1" precision="FP32">
					<dim>1</dim>
					<dim>256</dim>
					<dim>1</dim>
					<dim>1</dim>
				</port>
			</output>
		</layer>
		<layer id="304" name="275" type="Add" version="opset1">
			<data auto_broadcast="numpy"/>
			<rt_info>
				<attribute name="fused_names" value="275, Concat_1412, Reshape_1413" version="0"/>
			</rt_info>
			<input>
				<port id="0" precision="FP32">
					<dim>1</dim>
					<dim>256</dim>
					<dim>40</dim>
					<dim>40</dim>
				</port>
				<port id="1" precision="FP32">
					<dim>1</dim>
					<dim>256</dim>
					<dim>1</dim>
					<dim>1</dim>
				</port>
			</input>
			<output>
				<port id="2" names="275" precision="FP32">
					<dim>1</dim>
					<dim>256</dim>
					<dim>40</dim>
					<dim>40</dim>
				</port>
			</output>
		</layer>
		<layer id="305" name="Constant_1441_compressed" type="Const" version="opset1">
			<data element_type="f16" offset="7202" shape="1" size="2"/>
			<output>
				<port id="0" precision="FP16">
					<dim>1</dim>
				</port>
			</output>
		</layer>
		<layer id="306" name="Constant_1441" type="Convert" version="opset1">
			<data destination_type="f32"/>
			<rt_info>
				<attribute name="decompression" version="0"/>
				<attribute name="fused_names" value="Constant_1441" version="0"/>
			</rt_info>
			<input>
				<port id="0" precision="FP16">
					<dim>1</dim>
				</port>
			</input>
			<output>
				<port id="1" precision="FP32">
					<dim>1</dim>
				</port>
			</output>
		</layer>
		<layer id="307" name="276" type="PReLU" version="opset1">
			<rt_info>
				<attribute name="fused_names" value="276" version="0"/>
			</rt_info>
			<input>
				<port id="0" precision="FP32">
					<dim>1</dim>
					<dim>256</dim>
					<dim>40</dim>
					<dim>40</dim>
				</port>
				<port id="1" precision="FP32">
					<dim>1</dim>
				</port>
			</input>
			<output>
				<port id="2" names="276" precision="FP32">
					<dim>1</dim>
					<dim>256</dim>
					<dim>40</dim>
					<dim>40</dim>
				</port>
			</output>
		</layer>
		<layer id="308" name="model.7.conv.weight_compressed" type="Const" version="opset1">
			<data element_type="f16" offset="2424164" shape="512, 256, 3, 3" size="2359296"/>
			<output>
				<port id="0" precision="FP16">
					<dim>512</dim>
					<dim>256</dim>
					<dim>3</dim>
					<dim>3</dim>
				</port>
			</output>
		</layer>
		<layer id="309" name="model.7.conv.weight" type="Convert" version="opset1">
			<data destination_type="f32"/>
			<rt_info>
				<attribute name="decompression" version="0"/>
				<attribute name="fused_names" value="model.7.conv.weight" version="0"/>
			</rt_info>
			<input>
				<port id="0" precision="FP16">
					<dim>512</dim>
					<dim>256</dim>
					<dim>3</dim>
					<dim>3</dim>
				</port>
			</input>
			<output>
				<port id="1" names="model.7.conv.weight" precision="FP32">
					<dim>512</dim>
					<dim>256</dim>
					<dim>3</dim>
					<dim>3</dim>
				</port>
			</output>
		</layer>
		<layer id="310" name="Convolution_1443" type="Convolution" version="opset1">
			<data auto_pad="explicit" dilations="1, 1" pads_begin="1, 1" pads_end="1, 1" strides="2, 2"/>
			<rt_info>
				<attribute name="fused_names" value="Convolution_1443" version="0"/>
			</rt_info>
			<input>
				<port id="0" precision="FP32">
					<dim>1</dim>
					<dim>256</dim>
					<dim>40</dim>
					<dim>40</dim>
				</port>
				<port id="1" precision="FP32">
…
		<edge from-layer="118" from-port="1" to-layer="119" to-port="1"/>
		<edge from-layer="119" from-port="2" to-layer="122" to-port="0"/>
		<edge from-layer="120" from-port="0" to-layer="121" to-port="0"/>
		<edge from-layer="121" from-port="1" to-layer="122" to-port="1"/>
		<edge from-layer="122" from-port="2" to-layer="125" to-port="0"/>
		<edge from-layer="123" from-port="0" to-layer="124" to-port="0"/>
		<edge from-layer="124" from-port="1" to-layer="125" to-port="1"/>
		<edge from-layer="125" from-port="2" to-layer="128" to-port="0"/>
		<edge from-layer="125" from-port="2" to-layer="144" to-port="0"/>
		<edge from-layer="126" from-port="0" to-layer="127" to-port="0"/>
		<edge from-layer="127" from-port="1" to-layer="128" to-port="1"/>
		<edge from-layer="128" from-port="2" to-layer="131" to-port="0"/>
		<edge from-layer="129" from-port="0" to-layer="130" to-port="0"/>
		<edge from-layer="130" from-port="1" to-layer="131" to-port="1"/>
		<edge from-layer="131" from-port="2" to-layer="134" to-port="0"/>
		<edge from-layer="132" from-port="0" to-layer="133" to-port="0"/>
		<edge from-layer="133" from-port="1" to-layer="134" to-port="1"/>
		<edge from-layer="134" from-port="2" to-layer="137" to-port="0"/>
		<edge from-layer="135" from-port="0" to-layer="136" to-port="0"/>
		<edge from-layer="136" from-port="1" to-layer="137" to-port="1"/>
		<edge from-layer="137" from-port="2" to-layer="140" to-port="0"/>
		<edge from-layer="138" from-port="0" to-layer="139" to-port="0"/>
		<edge from-layer="139" from-port="1" to-layer="140" to-port="1"/>
		<edge from-layer="140" from-port="2" to-layer="143" to-port="0"/>
		<edge from-layer="141" from-port="0" to-layer="142" to-port="0"/>
		<edge from-layer="142" from-port="1" to-layer="143" to-port="1"/>
		<edge from-layer="143" from-port="2" to-layer="144" to-port="1"/>
		<edge from-layer="144" from-port="2" to-layer="163" to-port="0"/>
		<edge from-layer="144" from-port="2" to-layer="147" to-port="0"/>
		<edge from-layer="145" from-port="0" to-layer="146" to-port="0"/>
		<edge from-layer="146" from-port="1" to-layer="147" to-port="1"/>
		<edge from-layer="147" from-port="2" to-layer="150" to-port="0"/>
		<edge from-layer="148" from-port="0" to-layer="149" to-port="0"/>
		<edge from-layer="149" from-port="1" to-layer="150" to-port="1"/>
		<edge from-layer="150" from-port="2" to-layer="153" to-port="0"/>
		<edge from-layer="151" from-port="0" to-layer="152" to-port="0"/>
		<edge from-layer="152" from-port="1" to-layer="153" to-port="1"/>
		<edge from-layer="153" from-port="2" to-layer="156" to-port="0"/>
		<edge from-layer="154" from-port="0" to-layer="155" to-port="0"/>
		<edge from-layer="155" from-port="1" to-layer="156" to-port="1"/>
		<edge from-layer="156" from-port="2" to-layer="159" to-port="0"/>
		<edge from-layer="157" from-port="0" to-layer="158" to-port="0"/>
		<edge from-layer="158" from-port="1" to-layer="159" to-port="1"/>
		<edge from-layer="159" from-port="2" to-layer="162" to-port="0"/>
		<edge from-layer="160" from-port="0" to-layer="161" to-port="0"/>
		<edge from-layer="161" from-port="1" to-layer="162" to-port="1"/>
		<edge from-layer="162" from-port="2" to-layer="163" to-port="1"/>
		<edge from-layer="163" from-port="2" to-layer="166" to-port="0"/>
		<edge from-layer="163" from-port="2" to-layer="182" to-port="0"/>
		<edge from-layer="164" from-port="0" to-layer="165" to-port="0"/>
		<edge from-layer="165" from-port="1" to-layer="166" to-port="1"/>
		<edge from-layer="166" from-port="2" to-layer="169" to-port="0"/>
		<edge from-layer="167" from-port="0" to-layer="168" to-port="0"/>
		<edge from-layer="168" from-port="1" to-layer="169" to-port="1"/>
		<edge from-layer="169" from-port="2" to-layer="172" to-port="0"/>
		<edge from-layer="170" from-port="0" to-layer="171" to-port="0"/>
		<edge from-layer="171" from-port="1" to-layer="172" to-port="1"/>
		<edge from-layer="172" from-port="2" to-layer="175" to-port="0"/>
		<edge from-layer="173" from-port="0" to-layer="174" to-port="0"/>
		<edge from-layer="174" from-port="1" to-layer="175" to-port="1"/>
		<edge from-layer="175" from-port="2" to-layer="178" to-port="0"/>
		<edge from-layer="176" from-port="0" to-layer="177" to-port="0"/>
		<edge from-layer="177" from-port="1" to-layer="178" to-port="1"/>
		<edge from-layer="178" from-port="2" to-layer="181" to-port="0"/>
		<edge from-layer="179" from-port="0" to-layer="180" to-port="0"/>
		<edge from-layer="180" from-port="1" to-layer="181" to-port="1"/>
		<edge from-layer="181" from-port="2" to-layer="182" to-port="1"/>
		<edge from-layer="182" from-port="2" to-layer="185" to-port="0"/>
		<edge from-layer="183" from-port="0" to-layer="184" to-port="0"/>
		<edge from-layer="184" from-port="1" to-layer="185" to-port="1"/>
		<edge from-layer="185" from-port="2" to-layer="189" to-port="0"/>
		<edge from-layer="186" from-port="0" to-layer="187" to-port="0"/>
		<edge from-layer="187" from-port="1" to-layer="188" to-port="1"/>
		<edge from-layer="188" from-port="2" to-layer="189" to-port="1"/>
		<edge from-layer="189" from-port="2" to-layer="192" to-port="0"/>
		<edge from-layer="190" from-port="0" to-layer="191" to-port="0"/>
		<edge from-layer="191" from-port="1" to-layer="192" to-port="1"/>
		<edge from-layer="192" from-port="2" to-layer="195" to-port="0"/>
		<edge from-layer="193" from-port="0" to-layer="194" to-port="0"/>
		<edge from-layer="194" from-port="1" to-layer="195" to-port="1"/>
		<edge from-layer="195" from-port="2" to-layer="198" to-port="0"/>
		<edge from-layer="196" from-port="0" to-layer="197" to-port="0"/>
		<edge from-layer="197" from-port="1" to-layer="198" to-port="1"/>
		<edge from-layer="198" from-port="2" to-layer="201" to-port="0"/>
		<edge from-layer="199" from-port="0" to-layer="200" to-port="0"/>
		<edge from-layer="200" from-port="1" to-layer="201" to-port="1"/>
		<edge from-layer="201" from-port="2" to-layer="204" to-port="0"/>
		<edge from-layer="202" from-port="0" to-layer="203" to-port="0"/>
		<edge from-layer="203" from-port="1" to-layer="204" to-port="1"/>
		<edge from-layer="204" from-port="2" to-layer="207" to-port="0"/>
		<edge from-layer="205" from-port="0" to-layer="206" to-port="0"/>
		<edge from-layer="206" from-port="1" to-layer="207" to-port="1"/>
		<edge from-layer="207" from-port="2" to-layer="210" to-port="0"/>
		<edge from-layer="207" from-port="2" to-layer="474" to-port="1"/>
		<edge from-layer="208" from-port="0" to-layer="209" to-port="0"/>
		<edge from-layer="209" from-port="1" to-layer="210" to-port="1"/>
		<edge from-layer="210" from-port="2" to-layer="213" to-port="0"/>
		<edge from-layer="211" from-port="0" to-layer="212" to-port="0"/>
		<edge from-layer="212" from-port="1" to-layer="213" to-port="1"/>
		<edge from-layer="213" from-port="2" to-layer="216" to-port="0"/>
		<edge from-layer="214" from-port="0" to-layer="215" to-port="0"/>
		<edge from-layer="215" from-port="1" to-layer="216" to-port="1"/>
		<edge from-layer="216" from-port="2" to-layer="288" to-port="0"/>
		<edge from-layer="216" from-port="2" to-layer="219" to-port="0"/>
		<edge from-layer="217" from-port="0" to-layer="218" to-port="0"/>
		<edge from-layer="218" from-port="1" to-layer="219" to-port="1"/>
		<edge from-layer="219" from-port="2" to-layer="222" to-port="0"/>
		<edge from-layer="220" from-port="0" to-layer="221" to-port="0"/>
		<edge from-layer="221" from-port="1" to-layer="222" to-port="1"/>
		<edge from-layer="222" from-port="2" to-layer="225" to-port="0"/>
		<edge from-layer="223" from-port="0" to-layer="224" to-port="0"/>
		<edge from-layer="224" from-port="1" to-layer="225" to-port="1"/>
		<edge from-layer="225" from-port="2" to-layer="228" to-port="0"/>
		<edge from-layer="225" from-port="2" to-layer="244" to-port="0"/>
		<edge from-layer="226" from-port="0" to-layer="227" to-port="0"/>
		<edge from-layer="227" from-port="1" to-layer="228" to-port="1"/>
		<edge from-layer="228" from-port="2" to-layer="231" to-port="0"/>
		<edge from-layer="229" from-port="0" to-layer="230" to-port="0"/>
		<edge from-layer="230" from-port="1" to-layer="231" to-port="1"/>
		<edge from-layer="231" from-port="2" to-layer="234" to-port="0"/>
		<edge from-layer="232" from-port="0" to-layer="233" to-port="0"/>
		<edge from-layer="233" from-port="1" to-layer="234" to-port="1"/>
		<edge from-layer="234" from-port="2" to-layer="237" to-port="0"/>
		<edge from-layer="235" from-port="0" to-layer="236" to-port="0"/>
		<edge from-layer="236" from-port="1" to-layer="237" to-port="1"/>
		<edge from-layer="237" from-port="2" to-layer="240" to-port="0"/>
		<edge from-layer="238" from-port="0" to-layer="239" to-port="0"/>
		<edge from-layer="239" from-port="1" to-layer="240" to-port="1"/>
		<edge from-layer="240" from-port="2" to-layer="243" to-port="0"/>
		<edge from-layer="241" from-port="0" to-layer="242" to-port="0"/>
		<edge from-layer="242" from-port="1" to-layer="243" to-port="1"/>
		<edge from-layer="243" from-port="2" to-layer="244" to-port="1"/>
		<edge from-layer="244" from-port="2" to-layer="247" to-port="0"/>
		<edge from-layer="244" from-port="2" to-layer="263" to-port="0"/>
		<edge from-layer="245" from-port="0" to-layer="246" to-port="0"/>
		<edge from-layer="246" from-port="1" to-layer="247" to-port="1"/>
		<edge from-layer="247" from-port="2" to-layer="250" to-port="0"/>
		<edge from-layer="248" from-port="0" to-layer="249" to-port="0"/>
		<edge from-layer="249" from-port="1" to-layer="250" to-port="1"/>
		<edge from-layer="250" from-port="2" to-layer="253" to-port="0"/>
		<edge from-layer="251" from-port="0" to-layer="252" to-port="0"/>
		<edge from-layer="252" from-port="1" to-layer="253" to-port="1"/>
		<edge from-layer="253" from-port="2" to-layer="256" to-port="0"/>
		<edge from-layer="254" from-port="0" to-layer="255" to-port="0"/>
		<edge from-layer="255" from-port="1" to-layer="256" to-port="1"/>
		<edge from-layer="256" from-port="2" to-layer="259" to-port="0"/>
		<edge from-layer="257" from-port="0" to-layer="258" to-port="0"/>
		<edge from-layer="258" from-port="1" to-layer="259" to-port="1"/>
		<edge from-layer="259" from-port="2" to-layer="262" to-port="0"/>
		<edge from-layer="260" from-port="0" to-layer="261" to-port="0"/>
		<edge from-layer="261" from-port="1" to-layer="262" to-port="1"/>
		<edge from-layer="262" from-port="2" to-layer="263" to-port="1"/>
		<edge from-layer="263" from-port="2" to-layer="282" to-port="0"/>
		<edge from-layer="263" from-port="2" to-layer="266" to-port="0"/>
		<edge from-layer="264" from-port="0" to-layer="265" to-port="0"/>
		<edge from-layer="265" from-port="1" to-layer="266" to-port="1"/>
		<edge from-layer="266" from-port="2" to-layer="269" to-port="0"/>
		<edge from-layer="267" from-port="0" to-layer="268" to-port="0"/>
		<edge from-layer="268" from-port="1" to-layer="269" to-port="1"/>
		<edge from-layer="269" from-port="2" to-layer="272" to-port="0"/>
		<edge from-layer="270" from-port="0" to-layer="271" to-port="0"/>
		<edge from-layer="271" from-port="1" to-layer="272" to-port="1"/>
		<edge from-layer="272" from-port="2" to-layer="275" to-port="0"/>
		<edge from-layer="273" from-port="0" to-layer="274" to-port="0"/>
		<edge from-layer="274" from-port="1" to-layer="275" to-port="1"/>
		<edge from-layer="275" from-port="2" to-layer="278" to-port="0"/>
		<edge from-layer="276" from-port="0" to-layer="277" to-port="0"/>
		<edge from-layer="277" from-port="1" to-layer="278" to-port="1"/>
		<edge from-layer="278" from-port="2" to-layer="281" to-port="0"/>
		<edge from-layer="279" from-port="0" to-layer="280" to-port="0"/>
		<edge from-layer="280" from-port="1" to-layer="281" to-port="1"/>
		<edge from-layer="281" from-port="2" to-layer="282" to-port="1"/>
		<edge from-layer="282" from-port="2" to-layer="285" to-port="0"/>
		<edge from-layer="283" from-port="0" to-layer="284" to-port="0"/>
		<edge from-layer="284" from-port="1" to-layer="285" to-port="1"/>
		<edge from-layer="285" from-port="2" to-layer="289" to-port="0"/>
		<edge from-layer="286" from-port="0" to-layer="287" to-port="0"/>
		<edge from-layer="287" from-port="1" to-layer="288" to-port="1"/>
		<edge from-layer="288" from-port="2" to-layer="289" to-port="1"/>
		<edge from-layer="289" from-port="2" to-layer="292" to-port="0"/>
		<edge from-layer="290" from-port="0" to-layer="291" to-port="0"/>
		<edge from-layer="291" from-port="1" to-layer="292" to-port="1"/>
		<edge from-layer="292" from-port="2" to-layer="295" to-port="0"/>
		<edge from-layer="293" from-port="0" to-layer="294" to-port="0"/>
		<edge from-layer="294" from-port="1" to-layer="295" to-port="1"/>
		<edge from-layer="295" from-port="2" to-layer="298" to-port="0"/>
		<edge from-layer="296" from-port="0" to-layer="297" to-port="0"/>
		<edge from-layer="297" from-port="1" to-layer="298" to-port="1"/>
		<edge from-layer="298" from-port="2" to-layer="301" to-port="0"/>
		<edge from-layer="299" from-port="0" to-layer="300" to-port="0"/>
		<edge from-layer="300" from-port="1" to-layer="301" to-port="1"/>
		<edge from-layer="301" from-port="2" to-layer="304" to-port="0"/>
		<edge from-layer="302" from-port="0" to-layer="303" to-port="0"/>
		<edge from-layer="303" from-port="1" to-layer="304" to-port="1"/>
		<edge from-layer="304" from-port="2" to-layer="307" to-port="0"/>
		<edge from-layer="305" from-port="0" to-layer="306" to-port="0"/>
		<edge from-layer="306" from-port="1" to-layer="307" to-port="1"/>
		<edge from-layer="307" from-port="2" to-layer="310" to-port="0"/>
		<edge from-layer="307" from-port="2" to-layer="406" to-port="1"/>
		<edge from-layer="308" from-port="0" to-layer="309" to-port="0"/>
		<edge from-layer="309" from-port="1" to-layer="310" to-port="1"/>
		<edge from-layer="310" from-port="2" to-layer="313" to-port="0"/>
		<edge from-layer="311" from-port="0" to-layer="312" to-port="0"/>
		<edge from-layer="312" from-port="1" to-layer="313" to-port="1"/>
		<edge from-layer="313" from-port="2" to-layer="316" to-port="0"/>
		<edge from-layer="314" from-port="0" to-layer="315" to-port="0"/>
		<edge from-layer="315" from-port="1" to-layer="316" to-port="1"/>
		<edge from-layer="316" from-port="2" to-layer="319" to-port="0"/>
		<edge from-layer="317" from-port="0" to-layer="318" to-port="0"/>
		<edge from-layer="318" from-port="1" to-layer="319" to-port="1"/>
		<edge from-layer="319" from-port="2" to-layer="322" to-port="0"/>
		<edge from-layer="320" from-port="0" to-layer="321" to-port="0"/>
		<edge from-layer="321" from-port="1" to-layer="322" to-port="1"/>
		<edge from-layer="322" from-port="2" to-layer="325" to-port="0"/>
		<edge from-layer="323" from-port="0" to-layer="324" to-port="0"/>
		<edge from-layer="324" from-port="1" to-layer="325" to-port="1"/>
		<edge from-layer="325" from-port="2" to-layer="328" to-port="0"/>
		<edge from-layer="325" from-port="2" to-layer="329" to-port="0"/>
		<edge from-layer="325" from-port="2" to-layer="326" to-port="0"/>
		<edge from-layer="325" from-port="2" to-layer="327" to-port="0"/>
		<edge from-layer="326" from-port="1" to-layer="329" to-port="1"/>
		<edge from-layer="327" from-port="1" to-layer="329" to-port="2"/>
		<edge from-layer="328" from-port="1" to-layer="329" to-port="3"/>
		<edge from-layer="329" from-port="4" to-layer="332" to-port="0"/>
		<edge from-layer="330" from-port="0" to-layer="331" to-port="0"/>
		<edge from-layer="331" from-port="1" to-layer="332" to-port="1"/>
		<edge from-layer="332" from-port="2" to-layer="335" to-port="0"/>
		<edge from-layer="333" from-port="0" to-layer="334" to-port="0"/>
		<edge from-layer="334" from-port="1" to-layer="335" to-port="1"/>
		<edge from-layer="335" from-port="2" to-layer="338" to-port="0"/>
		<edge from-layer="336" from-port="0" to-layer="337" to-port="0"/>
		<edge from-layer="337" from-port="1" to-layer="338" to-port="1"/>
		<edge from-layer="338" from-port="2" to-layer="341" to-port="0"/>
		<edge from-layer="338" from-port="2" to-layer="371" to-port="0"/>
		<edge from-layer="339" from-port="0" to-layer="340" to-port="0"/>
		<edge from-layer="340" from-port="1" to-layer="341" to-port="1"/>
		<edge from-layer="341" from-port="2" to-layer="344" to-port="0"/>
		<edge from-layer="342" from-port="0" to-layer="343" to-port="0"/>
		<edge from-layer="343" from-port="1" to-layer="344" to-port="1"/>
		<edge from-layer="344" from-port="2" to-layer="347" to-port="0"/>
		<edge from-layer="345" from-port="0" to-layer="346" to-port="0"/>
		<edge from-layer="346" from-port="1" to-layer="347" to-port="1"/>
		<edge from-layer="347" from-port="2" to-layer="350" to-port="0"/>
		<edge from-layer="348" from-port="0" to-layer="349" to-port="0"/>
		<edge from-layer="349" from-port="1" to-layer="350" to-port="1"/>
		<edge from-layer="350" from-port="2" to-layer="353" to-port="0"/>
		<edge from-layer="351" from-port="0" to-layer="352" to-port="0"/>
		<edge from-layer="352" from-port="1" to-layer="353" to-port="1"/>
		<edge from-layer="353" from-port="2" to-layer="356" to-port="0"/>
		<edge from-layer="354" from-port="0" to-layer="355" to-port="0"/>
		<edge from-layer="355" from-port="1" to-layer="356" to-port="1"/>
		<edge from-layer="356" from-port="2" to-layer="359" to-port="0"/>
		<edge from-layer="357" from-port="0" to-layer="358" to-port="0"/>
		<edge from-layer="358" from-port="1" to-layer="359" to-port="1"/>
		<edge from-layer="359" from-port="2" to-layer="362" to-port="0"/>
		<edge from-layer="360" from-port="0" to-layer="361" to-port="0"/>
		<edge from-layer="361" from-port="1" to-layer="362" to-port="1"/>
		<edge from-layer="362" from-port="2" to-layer="365" to-port="0"/>
		<edge from-layer="363" from-port="0" to-layer="364" to-port="0"/>
		<edge from-layer="364" from-port="1" to-layer="365" to-port="1"/>
		<edge from-layer="365" from-port="2" to-layer="368" to-port="0"/>
		<edge from-layer="366" from-port="0" to-layer="367" to-port="0"/>
		<edge from-layer="367" from-port="1" to-layer="368" to-port="1"/>
		<edge from-layer="368" from-port="2" to-layer="372" to-port="0"/>
		<edge from-layer="369" from-port="0" to-layer="370" to-port="0"/>
		<edge from-layer="370" from-port="1" to-layer="371" to-port="1"/>
		<edge from-layer="371" from-port="2" to-layer="372" to-port="1"/>
		<edge from-layer="372" from-port="2" to-layer="375" to-port="0"/>
		<edge from-layer="373" from-port="0" to-layer="374" to-port="0"/>
		<edge from-layer="374" from-port="1" to-layer="375" to-port="1"/>
		<edge from-layer="375" from-port="2" to-layer="378" to-port="0"/>
		<edge from-layer="376" from-port="0" to-layer="377" to-port="0"/>
		<edge from-layer="377" from-port="1" to-layer="378" to-port="1"/>
		<edge from-layer="378" from-port="2" to-layer="381" to-port="0"/>
		<edge from-layer="379" from-port="0" to-layer="380" to-port="0"/>
		<edge from-layer="380" from-port="1" to-layer="381" to-port="1"/>
		<edge from-layer="381" from-port="2" to-layer="384" to-port="0"/>
		<edge from-layer="382" from-port="0" to-layer="383" to-port="0"/>
		<edge from-layer="383" from-port="1" to-layer="384" to-port="1"/>
		<edge from-layer="384" from-port="2" to-layer="387" to-port="0"/>
		<edge from-layer="385" from-port="0" to-layer="386" to-port="0"/>
		<edge from-layer="386" from-port="1" to-layer="387" to-port="1"/>
		<edge from-layer="387" from-port="2" to-layer="390" to-port="0"/>
		<edge from-layer="388" from-port="0" to-layer="389" to-port="0"/>
		<edge from-layer="389" from-port="1" to-layer="390" to-port="1"/>
		<edge from-layer="390" from-port="2" to-layer="393" to-port="0"/>
		<edge from-layer="391" from-port="0" to-layer="392" to-port="0"/>
		<edge from-layer="392" from-port="1" to-layer="393" to-port="1"/>
		<edge from-layer="393" from-port="2" to-layer="396" to-port="0"/>
		<edge from-layer="394" from-port="0" to-layer="395" to-port="0"/>
		<edge from-layer="395" from-port="1" to-layer="396" to-port="1"/>
		<edge from-layer="396" from-port="2" to-layer="399" to-port="0"/>
		<edge from-layer="397" from-port="0" to-layer="398" to-port="0"/>
		<edge from-layer="398" from-port="1" to-layer="399" to-port="1"/>
		<edge from-layer="399" from-port="2" to-layer="405" to-port="0"/>
		<edge from-layer="399" from-port="2" to-layer="400" to-port="0"/>
		<edge from-layer="399" from-port="2" to-layer="686" to-port="1"/>
		<edge from-layer="400" from-port="1" to-layer="401" to-port="0"/>
		<edge from-layer="401" from-port="1" to-layer="403" to-port="0"/>
		<edge from-layer="402" from-port="0" to-layer="403" to-port="1"/>
		<edge from-layer="402" from-port="0" to-layer="405" to-port="2"/>
		<edge from-layer="403" from-port="2" to-layer="404" to-port="0"/>
		<edge from-layer="404" from-port="1" to-layer="405" to-port="1"/>
		<edge from-layer="405" from-port="3" to-layer="406" to-port="0"/>
		<edge from-layer="406" from-port="2" to-layer="409" to-port="0"/>
		<edge from-layer="406" from-port="2" to-layer="439" to-port="0"/>
		<edge from-layer="407" from-port="0" to-layer="408" to-port="0"/>
		<edge from-layer="408" from-port="1" to-layer="409" to-port="1"/>
		<edge from-layer="409" from-port="2" to-layer="412" to-port="0"/>
		<edge from-layer="410" from-port="0" to-layer="411" to-port="0"/>
		<edge from-layer="411" from-port="1" to-layer="412" to-port="1"/>
		<edge from-layer="412" from-port="2" to-layer="415" to-port="0"/>
		<edge from-layer="413" from-port="0" to-layer="414" to-port="0"/>
		<edge from-layer="414" from-port="1" to-layer="415" to-port="1"/>
		<edge from-layer="415" from-port="2" to-layer="418" to-port="0"/>
		<edge from-layer="416" from-port="0" to-layer="417" to-port="0"/>
		<edge from-layer="417" from-port="1" to-layer="418" to-port="1"/>
		<edge from-layer="418" from-port="2" to-layer="421" to-port="0"/>
		<edge from-layer="419" from-port="0" to-layer="420" to-port="0"/>
		<edge from-layer="420" from-port="1" to-layer="421" to-port="1"/>
		<edge from-layer="421" from-port="2" to-layer="424" to-port="0"/>
		<edge from-layer="422" from-port="0" to-layer="423" to-port="0"/>
		<edge from-layer="423" from-port="1" to-layer="424" to-port="1"/>
		<edge from-layer="424" from-port="2" to-layer="427" to-port="0"/>
		<edge from-layer="425" from-port="0" to-layer="426" to-port="0"/>
		<edge from-layer="426" from-port="1" to-layer="427" to-port="1"/>
		<edge from-layer="427" from-port="2" to-layer="430" to-port="0"/>
		<edge from-layer="428" from-port="0" to-layer="429" to-port="0"/>
		<edge from-layer="429" from-port="1" to-layer="430" to-port="1"/>
		<edge from-layer="430" from-port="2" to-layer="433" to-port="0"/>
		<edge from-layer="431" from-port="0" to-layer="432" to-port="0"/>
		<edge from-layer="432" from-port="1" to-layer="433" to-port="1"/>
		<edge from-layer="433" from-port="2" to-layer="436" to-port="0"/>
		<edge from-layer="434" from-port="0" to-layer="435" to-port="0"/>
		<edge from-layer="435" from-port="1" to-layer="436" to-port="1"/>
		<edge from-layer="436" from-port="2" to-layer="440" to-port="0"/>
		<edge from-layer="437" from-port="0" to-layer="438" to-port="0"/>
		<edge from-layer="438" from-port="1" to-layer="439" to-port="1"/>
		<edge from-layer="439" from-port="2" to-layer="440" to-port="1"/>
		<edge from-layer="440" from-port="2" to-layer="443" to-port="0"/>
		<edge from-layer="441" from-port="0" to-layer="442" to-port="0"/>
		<edge from-layer="442" from-port="1" to-layer="443" to-port="1"/>
		<edge from-layer="443" from-port="2" to-layer="446" to-port="0"/>
		<edge from-layer="444" from-port="0" to-layer="445" to-port="0"/>
		<edge from-layer="445" from-port="1" to-layer="446" to-port="1"/>
		<edge from-layer="446" from-port="2" to-layer="449" to-port="0"/>
		<edge from-layer="447" from-port="0" to-layer="448" to-port="0"/>
		<edge from-layer="448" from-port="1" to-layer="449" to-port="1"/>
		<edge from-layer="449" from-port="2" to-layer="452" to-port="0"/>
		<edge from-layer="450" from-port="0" to-layer="451" to-port="0"/>
		<edge from-layer="451" from-port="1" to-layer="452" to-port="1"/>
		<edge from-layer="452" from-port="2" to-layer="455" to-port="0"/>
		<edge from-layer="453" from-port="0" to-layer="454" to-port="0"/>
		<edge from-layer="454" from-port="1" to-layer="455" to-port="1"/>
		<edge from-layer="455" from-port="2" to-layer="458" to-port="0"/>
		<edge from-layer="456" from-port="0" to-layer="457" to-port="0"/>
		<edge from-layer="457" from-port="1" to-layer="458" to-port="1"/>
		<edge from-layer="458" from-port="2" to-layer="461" to-port="0"/>
		<edge from-layer="459" from-port="0" to-layer="460" to-port="0"/>
		<edge from-layer="460" from-port="1" to-layer="461" to-port="1"/>
		<edge from-layer="461" from-port="2" to-layer="464" to-port="0"/>
		<edge from-layer="462" from-port="0" to-layer="463" to-port="0"/>
		<edge from-layer="463" from-port="1" to-layer="464" to-port="1"/>
		<edge from-layer="464" from-port="2" to-layer="467" to-port="0"/>
		<edge from-layer="465" from-port="0" to-layer="466" to-port="0"/>
		<edge from-layer="466" from-port="1" to-layer="467" to-port="1"/>
		<edge from-layer="467" from-port="2" to-layer="468" to-port="0"/>
		<edge from-layer="467" from-port="2" to-layer="473" to-port="0"/>
		<edge from-layer="467" from-port="2" to-layer="580" to-port="1"/>
		<edge from-layer="468" from-port="1" to-layer="469" to-port="0"/>
		<edge from-layer="469" from-port="1" to-layer="471" to-port="0"/>
		<edge from-layer="470" from-port="0" to-layer="471" to-port="1"/>
		<edge from-layer="470" from-port="0" to-layer="473" to-port="2"/>
		<edge from-layer="471" from-port="2" to-layer="472" to-port="0"/>
		<edge from-layer="472" from-port="1" to-layer="473" to-port="1"/>
		<edge from-layer="473" from-port="3" to-layer="474" to-port="0"/>
		<edge from-layer="474" from-port="2" to-layer="477" to-port="0"/>
		<edge from-layer="474" from-port="2" to-layer="507" to-port="0"/>
		<edge from-layer="475" from-port="0" to-layer="476" to-port="0"/>
		<edge from-layer="476" from-port="1" to-layer="477" to-port="1"/>
		<edge from-layer="477" from-port="2" to-layer="480" to-port="0"/>
		<edge from-layer="478" from-port="0" to-layer="479" to-port="0"/>
		<edge from-layer="479" from-port="1" to-layer="480" to-port="1"/>
		<edge from-layer="480" from-port="2" to-layer="483" to-port="0"/>
		<edge from-layer="481" from-port="0" to-layer="482" to-port="0"/>
		<edge from-layer="482" from-port="1" to-layer="483" to-port="1"/>
		<edge from-layer="483" from-port="2" to-layer="486" to-port="0"/>
		<edge from-layer="484" from-port="0" to-layer="485" to-port="0"/>
		<edge from-layer="485" from-port="1" to-layer="486" to-port="1"/>
		<edge from-layer="486" from-port="2" to-layer="489" to-port="0"/>
		<edge from-layer="487" from-port="0" to-layer="488" to-port="0"/>
		<edge from-layer="488" from-port="1" to-layer="489" to-port="1"/>
		<edge from-layer="489" from-port="2" to-layer="492" to-port="0"/>
		<edge from-layer="490" from-port="0" to-layer="491" to-port="0"/>
		<edge from-layer="491" from-port="1" to-layer="492" to-port="1"/>
		<edge from-layer="492" from-port="2" to-layer="495" to-port="0"/>
		<edge from-layer="493" from-port="0" to-layer="494" to-port="0"/>
		<edge from-layer="494" from-port="1" to-layer="495" to-port="1"/>
		<edge from-layer="495" from-port="2" to-layer="498" to-port="0"/>
		<edge from-layer="496" from-port="0" to-layer="497" to-port="0"/>
		<edge from-layer="497" from-port="1" to-layer="498" to-port="1"/>
		<edge from-layer="498" from-port="2" to-layer="501" to-port="0"/>
		<edge from-layer="499" from-port="0" to-layer="500" to-port="0"/>
		<edge from-layer="500" from-port="1" to-layer="501" to-port="1"/>
		<edge from-layer="501" from-port="2" to-layer="504" to-port="0"/>
		<edge from-layer="502" from-port="0" to-layer="503" to-port="0"/>
		<edge from-layer="503" from-port="1" to-layer="504" to-port="1"/>
		<edge from-layer="504" from-port="2" to-layer="508" to-port="0"/>
		<edge from-layer="505" from-port="0" to-layer="506" to-port="0"/>
		<edge from-layer="506" from-port="1" to-layer="507" to-port="1"/>
		<edge from-layer="507" from-port="2" to-layer="508" to-port="1"/>
		<edge from-layer="508" from-port="2" to-layer="511" to-port="0"/>
		<edge from-layer="509" from-port="0" to-layer="510" to-port="0"/>
		<edge from-layer="510" from-port="1" to-layer="511" to-port="1"/>
		<edge from-layer="511" from-port="2" to-layer="514" to-port="0"/>
		<edge from-layer="512" from-port="0" to-layer="513" to-port="0"/>
		<edge from-layer="513" from-port="1" to-layer="514" to-port="1"/>
		<edge from-layer="514" from-port="2" to-layer="517" to-port="0"/>
		<edge from-layer="515" from-port="0" to-layer="516" to-port="0"/>
		<edge from-layer="516" from-port="1" to-layer="517" to-port="1"/>
		<edge from-layer="517" from-port="2" to-layer="520" to-port="0"/>
		<edge from-layer="518" from-port="0" to-layer="519" to-port="0"/>
		<edge from-layer="519" from-port="1" to-layer="520" to-port="1"/>
		<edge from-layer="520" from-port="2" to-layer="523" to-port="0"/>
		<edge from-layer="521" from-port="0" to-layer="522" to-port="0"/>
		<edge from-layer="522" from-port="1" to-layer="523" to-port="1"/>
		<edge from-layer="523" from-port="2" to-layer="526" to-port="0"/>
		<edge from-layer="524" from-port="0" to-layer="525" to-port="0"/>
		<edge from-layer="525" from-port="1" to-layer="526" to-port="1"/>
		<edge from-layer="526" from-port="2" to-layer="529" to-port="0"/>
		<edge from-layer="526" from-port="2" to-layer="573" to-port="0"/>
		<edge from-layer="527" from-port="0" to-layer="528" to-port="0"/>
		<edge from-layer="528" from-port="1" to-layer="529" to-port="1"/>
		<edge from-layer="529" from-port="2" to-layer="532" to-port="0"/>
		<edge from-layer="530" from-port="0" to-layer="531" to-port="0"/>
		<edge from-layer="531" from-port="1" to-layer="532" to-port="1"/>
		<edge from-layer="532" from-port="2" to-layer="536" to-port="0"/>
		<edge from-layer="532" from-port="2" to-layer="541" to-port="0"/>
		<edge from-layer="533" from-port="0" to-layer="540" to-port="0"/>
		<edge from-layer="534" from-port="0" to-layer="540" to-port="1"/>
		<edge from-layer="535" from-port="0" to-layer="540" to-port="2"/>
		<edge from-layer="536" from-port="1" to-layer="539" to-port="0"/>
		<edge from-layer="536" from-port="1" to-layer="566" to-port="0"/>
		<edge from-layer="537" from-port="0" to-layer="539" to-port="1"/>
		<edge from-layer="538" from-port="0" to-layer="539" to-port="2"/>
		<edge from-layer="539" from-port="3" to-layer="540" to-port="3"/>
		<edge from-layer="540" from-port="4" to-layer="541" to-port="1"/>
		<edge from-layer="541" from-port="2" to-layer="543" to-port="0"/>
		<edge from-layer="542" from-port="0" to-layer="543" to-port="1"/>
		<edge from-layer="543" from-port="2" to-layer="544" to-port="0"/>
		<edge from-layer="544" from-port="1" to-layer="547" to-port="0"/>
		<edge from-layer="545" from-port="0" to-layer="547" to-port="1"/>
		<edge from-layer="546" from-port="0" to-layer="547" to-port="2"/>
		<edge from-layer="547" from-port="3" to-layer="550" to-port="0"/>
		<edge from-layer="547" from-port="4" to-layer="556" to-port="0"/>
		<edge from-layer="547" from-port="5" to-layer="563" to-port="2"/>
		<edge from-layer="548" from-port="0" to-layer="549" to-port="0"/>
		<edge from-layer="549" from-port="1" to-layer="550" to-port="1"/>
		<edge from-layer="550" from-port="2" to-layer="553" to-port="0"/>
		<edge from-layer="551" from-port="0" to-layer="552" to-port="0"/>
		<edge from-layer="552" from-port="1" to-layer="553" to-port="1"/>
		<edge from-layer="553" from-port="2" to-layer="563" to-port="0"/>
		<edge from-layer="554" from-port="0" to-layer="555" to-port="0"/>
		<edge from-layer="555" from-port="1" to-layer="556" to-port="1"/>
		<edge from-layer="556" from-port="2" to-layer="559" to-port="0"/>
		<edge from-layer="557" from-port="0" to-layer="558" to-port="0"/>
		<edge from-layer="558" from-port="1" to-layer="559" to-port="1"/>
		<edge from-layer="559" from-port="2" to-layer="562" to-port="0"/>
		<edge from-layer="560" from-port="0" to-layer="561" to-port="0"/>
		<edge from-layer="561" from-port="1" to-layer="562" to-port="1"/>
		<edge from-layer="562" from-port="2" to-layer="563" to-port="1"/>
		<edge from-layer="563" from-port="3" to-layer="570" to-port="0"/>
		<edge from-layer="564" from-port="0" to-layer="566" to-port="1"/>
		<edge from-layer="565" from-port="0" to-layer="566" to-port="2"/>
		<edge from-layer="566" from-port="3" to-layer="569" to-port="0"/>
		<edge from-layer="567" from-port="0" to-layer="569" to-port="1"/>
		<edge from-layer="568" from-port="0" to-layer="569" to-port="2"/>
		<edge from-layer="569" from-port="3" to-layer="570" to-port="1"/>
		<edge from-layer="570" from-port="2" to-layer="783" to-port="0"/>
		<edge from-layer="571" from-port="0" to-layer="572" to-port="0"/>
		<edge from-layer="572" from-port="1" to-layer="573" to-port="1"/>
		<edge from-layer="573" from-port="2" to-layer="576" to-port="0"/>
		<edge from-layer="574" from-port="0" to-layer="575" to-port="0"/>
		<edge from-layer="575" from-port="1" to-layer="576" to-port="1"/>
		<edge from-layer="576" from-port="2" to-layer="579" to-port="0"/>
		<edge from-layer="577" from-port="0" to-layer="578" to-port="0"/>
		<edge from-layer="578" from-port="1" to-layer="579" to-port="1"/>
		<edge from-layer="579" from-port="2" to-layer="580" to-port="0"/>
		<edge from-layer="580" from-port="2" to-layer="583" to-port="0"/>
		<edge from-layer="580" from-port="2" to-layer="613" to-port="0"/>
		<edge from-layer="581" from-port="0" to-layer="582" to-port="0"/>
		<edge from-layer="582" from-port="1" to-layer="583" to-port="1"/>
		<edge from-layer="583" from-port="2" to-layer="586" to-port="0"/>
		<edge from-layer="584" from-port="0" to-layer="585" to-port="0"/>
		<edge from-layer="585" from-port="1" to-layer="586" to-port="1"/>
		<edge from-layer="586" from-port="2" to-layer="589" to-port="0"/>
		<edge from-layer="587" from-port="0" to-layer="588" to-port="0"/>
		<edge from-layer="588" from-port="1" to-layer="589" to-port="1"/>
		<edge from-layer="589" from-port="2" to-layer="592" to-port="0"/>
		<edge from-layer="590" from-port="0" to-layer="591" to-port="0"/>
		<edge from-layer="591" from-port="1" to-layer="592" to-port="1"/>
		<edge from-layer="592" from-port="2" to-layer="595" to-port="0"/>
		<edge from-layer="593" from-port="0" to-layer="594" to-port="0"/>
		<edge from-layer="594" from-port="1" to-layer="595" to-port="1"/>
		<edge from-layer="595" from-port="2" to-layer="598" to-port="0"/>
		<edge from-layer="596" from-port="0" to-layer="597" to-port="0"/>
		<edge from-layer="597" from-port="1" to-layer="598" to-port="1"/>
		<edge from-layer="598" from-port="2" to-layer="601" to-port="0"/>
		<edge from-layer="599" from-port="0" to-layer="600" to-port="0"/>
		<edge from-layer="600" from-port="1" to-layer="601" to-port="1"/>
		<edge from-layer="601" from-port="2" to-layer="604" to-port="0"/>
		<edge from-layer="602" from-port="0" to-layer="603" to-port="0"/>
		<edge from-layer="603" from-port="1" to-layer="604" to-port="1"/>
		<edge from-layer="604" from-port="2" to-layer="607" to-port="0"/>
		<edge from-layer="605" from-port="0" to-layer="606" to-port="0"/>
		<edge from-layer="606" from-port="1" to-layer="607" to-port="1"/>
		<edge from-layer="607" from-port="2" to-layer="610" to-port="0"/>
		<edge from-layer="608" from-port="0" to-layer="609" to-port="0"/>
		<edge from-layer="609" from-port="1" to-layer="610" to-port="1"/>
		<edge from-layer="610" from-port="2" to-layer="614" to-port="0"/>
		<edge from-layer="611" from-port="0" to-layer="612" to-port="0"/>
		<edge from-layer="612" from-port="1" to-layer="613" to-port="1"/>
		<edge from-layer="613" from-port="2" to-layer="614" to-port="1"/>
		<edge from-layer="614" from-port="2" to-layer="617" to-port="0"/>
		<edge from-layer="615" from-port="0" to-layer="616" to-port="0"/>
		<edge from-layer="616" from-port="1" to-layer="617" to-port="1"/>
		<edge from-layer="617" from-port="2" to-layer="620" to-port="0"/>
		<edge from-layer="618" from-port="0" to-layer="619" to-port="0"/>
		<edge from-layer="619" from-port="1" to-layer="620" to-port="1"/>
		<edge from-layer="620" from-port="2" to-layer="623" to-port="0"/>
		<edge from-layer="621" from-port="0" to-layer="622" to-port="0"/>
		<edge from-layer="622" from-port="1" to-layer="623" to-port="1"/>
		<edge from-layer="623" from-port="2" to-layer="626" to-port="0"/>
		<edge from-layer="624" from-port="0" to-layer="625" to-port="0"/>
		<edge from-layer="625" from-port="1" to-layer="626" to-port="1"/>
		<edge from-layer="626" from-port="2" to-layer="629" to-port="0"/>
		<edge from-layer="627" from-port="0" to-layer="628" to-port="0"/>
		<edge from-layer="628" from-port="1" to-layer="629" to-port="1"/>
		<edge from-layer="629" from-port="2" to-layer="632" to-port="0"/>
		<edge from-layer="630" from-port="0" to-layer="631" to-port="0"/>
		<edge from-layer="631" from-port="1" to-layer="632" to-port="1"/>
		<edge from-layer="632" from-port="2" to-layer="635" to-port="0"/>
		<edge from-layer="632" from-port="2" to-layer="679" to-port="0"/>
		<edge from-layer="633" from-port="0" to-layer="634" to-port="0"/>
		<edge from-layer="634" from-port="1" to-layer="635" to-port="1"/>
		<edge from-layer="635" from-port="2" to-layer="638" to-port="0"/>
		<edge from-layer="636" from-port="0" to-layer="637" to-port="0"/>
		<edge from-layer="637" from-port="1" to-layer="638" to-port="1"/>
		<edge from-layer="638" from-port="2" to-layer="642" to-port="0"/>
		<edge from-layer="638" from-port="2" to-layer="647" to-port="0"/>
		<edge from-layer="639" from-port="0" to-layer="646" to-port="0"/>
		<edge from-layer="640" from-port="0" to-layer="646" to-port="1"/>
		<edge from-layer="641" from-port="0" to-layer="646" to-port="2"/>
		<edge from-layer="642" from-port="1" to-layer="645" to-port="0"/>
		<edge from-layer="642" from-port="1" to-layer="672" to-port="0"/>
		<edge from-layer="643" from-port="0" to-layer="645" to-port="1"/>
		<edge from-layer="644" from-port="0" to-layer="645" to-port="2"/>
		<edge from-layer="645" from-port="3" to-layer="646" to-port="3"/>
		<edge from-layer="646" from-port="4" to-layer="647" to-port="1"/>
		<edge from-layer="647" from-port="2" to-layer="649" to-port="0"/>
		<edge from-layer="648" from-port="0" to-layer="649" to-port="1"/>
		<edge from-layer="649" from-port="2" to-layer="650" to-port="0"/>
		<edge from-layer="650" from-port="1" to-layer="653" to-port="0"/>
		<edge from-layer="651" from-port="0" to-layer="653" to-port="1"/>
		<edge from-layer="652" from-port="0" to-layer="653" to-port="2"/>
		<edge from-layer="653" from-port="3" to-layer="656" to-port="0"/>
		<edge from-layer="653" from-port="4" to-layer="662" to-port="0"/>
		<edge from-layer="653" from-port="5" to-layer="669" to-port="2"/>
		<edge from-layer="654" from-port="0" to-layer="655" to-port="0"/>
		<edge from-layer="655" from-port="1" to-layer="656" to-port="1"/>
		<edge from-layer="656" from-port="2" to-layer="659" to-port="0"/>
		<edge from-layer="657" from-port="0" to-layer="658" to-port="0"/>
		<edge from-layer="658" from-port="1" to-layer="659" to-port="1"/>
		<edge from-layer="659" from-port="2" to-layer="669" to-port="0"/>
		<edge from-layer="660" from-port="0" to-layer="661" to-port="0"/>
		<edge from-layer="661" from-port="1" to-layer="662" to-port="1"/>
		<edge from-layer="662" from-port="2" to-layer="665" to-port="0"/>
		<edge from-layer="663" from-port="0" to-layer="664" to-port="0"/>
		<edge from-layer="664" from-port="1" to-layer="665" to-port="1"/>
		<edge from-layer="665" from-port="2" to-layer="668" to-port="0"/>
		<edge from-layer="666" from-port="0" to-layer="667" to-port="0"/>
		<edge from-layer="667" from-port="1" to-layer="668" to-port="1"/>
		<edge from-layer="668" from-port="2" to-layer="669" to-port="1"/>
		<edge from-layer="669" from-port="3" to-layer="676" to-port="0"/>
		<edge from-layer="670" from-port="0" to-layer="672" to-port="1"/>
		<edge from-layer="671" from-port="0" to-layer="672" to-port="2"/>
		<edge from-layer="672" from-port="3" to-layer="675" to-port="0"/>
		<edge from-layer="673" from-port="0" to-layer="675" to-port="1"/>
		<edge from-layer="674" from-port="0" to-layer="675" to-port="2"/>
		<edge from-layer="675" from-port="3" to-layer="676" to-port="1"/>
		<edge from-layer="676" from-port="2" to-layer="783" to-port="1"/>
		<edge from-layer="677" from-port="0" to-layer="678" to-port="0"/>
		<edge from-layer="678" from-port="1" to-layer="679" to-port="1"/>
		<edge from-layer="679" from-port="2" to-layer="682" to-port="0"/>
		<edge from-layer="680" from-port="0" to-layer="681" to-port="0"/>
		<edge from-layer="681" from-port="1" to-layer="682" to-port="1"/>
		<edge from-layer="682" from-port="2" to-layer="685" to-port="0"/>
		<edge from-layer="683" from-port="0" to-layer="684" to-port="0"/>
		<edge from-layer="684" from-port="1" to-layer="685" to-port="1"/>
		<edge from-layer="685" from-port="2" to-layer="686" to-port="0"/>
		<edge from-layer="686" from-port="2" to-layer="689" to-port="0"/>
		<edge from-layer="686" from-port="2" to-layer="719" to-port="0"/>
		<edge from-layer="687" from-port="0" to-layer="688" to-port="0"/>
		<edge from-layer="688" from-port="1" to-layer="689" to-port="1"/>
		<edge from-layer="689" from-port="2" to-layer="692" to-port="0"/>
		<edge from-layer="690" from-port="0" to-layer="691" to-port="0"/>
		<edge from-layer="691" from-port="1" to-layer="692" to-port="1"/>
		<edge from-layer="692" from-port="2" to-layer="695" to-port="0"/>
		<edge from-layer="693" from-port="0" to-layer="694" to-port="0"/>
		<edge from-layer="694" from-port="1" to-layer="695" to-port="1"/>
		<edge from-layer="695" from-port="2" to-layer="698" to-port="0"/>
		<edge from-layer="696" from-port="0" to-layer="697" to-port="0"/>
		<edge from-layer="697" from-port="1" to-layer="698" to-port="1"/>
		<edge from-layer="698" from-port="2" to-layer="701" to-port="0"/>
		<edge from-layer="699" from-port="0" to-layer="700" to-port="0"/>
		<edge from-layer="700" from-port="1" to-layer="701" to-port="1"/>
		<edge from-layer="701" from-port="2" to-layer="704" to-port="0"/>
		<edge from-layer="702" from-port="0" to-layer="703" to-port="0"/>
		<edge from-layer="703" from-port="1" to-layer="704" to-port="1"/>
		<edge from-layer="704" from-port="2" to-layer="707" to-port="0"/>
		<edge from-layer="705" from-port="0" to-layer="706" to-port="0"/>
		<edge from-layer="706" from-port="1" to-layer="707" to-port="1"/>
		<edge from-layer="707" from-port="2" to-layer="710" to-port="0"/>
		<edge from-layer="708" from-port="0" to-layer="709" to-port="0"/>
		<edge from-layer="709" from-port="1" to-layer="710" to-port="1"/>
		<edge from-layer="710" from-port="2" to-layer="713" to-port="0"/>
		<edge from-layer="711" from-port="0" to-layer="712" to-port="0"/>
		<edge from-layer="712" from-port="1" to-layer="713" to-port="1"/>
		<edge from-layer="713" from-port="2" to-layer="716" to-port="0"/>
		<edge from-layer="714" from-port="0" to-layer="715" to-port="0"/>
		<edge from-layer="715" from-port="1" to-layer="716" to-port="1"/>
		<edge from-layer="716" from-port="2" to-layer="720" to-port="0"/>
		<edge from-layer="717" from-port="0" to-layer="718" to-port="0"/>
		<edge from-layer="718" from-port="1" to-layer="719" to-port="1"/>
		<edge from-layer="719" from-port="2" to-layer="720" to-port="1"/>
		<edge from-layer="720" from-port="2" to-layer="723" to-port="0"/>
		<edge from-layer="721" from-port="0" to-layer="722" to-port="0"/>
		<edge from-layer="722" from-port="1" to-layer="723" to-port="1"/>
		<edge from-layer="723" from-port="2" to-layer="726" to-port="0"/>
		<edge from-layer="724" from-port="0" to-layer="725" to-port="0"/>
		<edge from-layer="725" from-port="1" to-layer="726" to-port="1"/>
		<edge from-layer="726" from-port="2" to-layer="729" to-port="0"/>
		<edge from-layer="727" from-port="0" to-layer="728" to-port="0"/>
		<edge from-layer="728" from-port="1" to-layer="729" to-port="1"/>
		<edge from-layer="729" from-port="2" to-layer="732" to-port="0"/>
		<edge from-layer="730" from-port="0" to-layer="731" to-port="0"/>
		<edge from-layer="731" from-port="1" to-layer="732" to-port="1"/>
		<edge from-layer="732" from-port="2" to-layer="735" to-port="0"/>
		<edge from-layer="733" from-port="0" to-layer="734" to-port="0"/>
		<edge from-layer="734" from-port="1" to-layer="735" to-port="1"/>
		<edge from-layer="735" from-port="2" to-layer="738" to-port="0"/>
		<edge from-layer="736" from-port="0" to-layer="737" to-port="0"/>
		<edge from-layer="737" from-port="1" to-layer="738" to-port="1"/>
		<edge from-layer="738" from-port="2" to-layer="741" to-port="0"/>
		<edge from-layer="739" from-port="0" to-layer="740" to-port="0"/>
		<edge from-layer="740" from-port="1" to-layer="741" to-port="1"/>
		<edge from-layer="741" from-port="2" to-layer="744" to-port="0"/>
		<edge from-layer="742" from-port="0" to-layer="743" to-port="0"/>
		<edge from-layer="743" from-port="1" to-layer="744" to-port="1"/>
		<edge from-layer="744" from-port="2" to-layer="748" to-port="0"/>
		<edge from-layer="744" from-port="2" to-layer="753" to-port="0"/>
		<edge from-layer="745" from-port="0" to-layer="752" to-port="0"/>
		<edge from-layer="746" from-port="0" to-layer="752" to-port="1"/>
		<edge from-layer="747" from-port="0" to-layer="752" to-port="2"/>
		<edge from-layer="748" from-port="1" to-layer="751" to-port="0"/>
		<edge from-layer="748" from-port="1" to-layer="778" to-port="0"/>
		<edge from-layer="749" from-port="0" to-layer="751" to-port="1"/>
		<edge from-layer="750" from-port="0" to-layer="751" to-port="2"/>
		<edge from-layer="751" from-port="3" to-layer="752" to-port="3"/>
		<edge from-layer="752" from-port="4" to-layer="753" to-port="1"/>
		<edge from-layer="753" from-port="2" to-layer="755" to-port="0"/>
		<edge from-layer="754" from-port="0" to-layer="755" to-port="1"/>
		<edge from-layer="755" from-port="2" to-layer="756" to-port="0"/>
		<edge from-layer="756" from-port="1" to-layer="759" to-port="0"/>
		<edge from-layer="757" from-port="0" to-layer="759" to-port="1"/>
		<edge from-layer="758" from-port="0" to-layer="759" to-port="2"/>
		<edge from-layer="759" from-port="3" to-layer="762" to-port="0"/>
		<edge from-layer="759" from-port="4" to-layer="768" to-port="0"/>
		<edge from-layer="759" from-port="5" to-layer="775" to-port="2"/>
		<edge from-layer="760" from-port="0" to-layer="761" to-port="0"/>
		<edge from-layer="761" from-port="1" to-layer="762" to-port="1"/>
		<edge from-layer="762" from-port="2" to-layer="765" to-port="0"/>
		<edge from-layer="763" from-port="0" to-layer="764" to-port="0"/>
		<edge from-layer="764" from-port="1" to-layer="765" to-port="1"/>
		<edge from-layer="765" from-port="2" to-layer="775" to-port="0"/>
		<edge from-layer="766" from-port="0" to-layer="767" to-port="0"/>
		<edge from-layer="767" from-port="1" to-layer="768" to-port="1"/>
		<edge from-layer="768" from-port="2" to-layer="771" to-port="0"/>
		<edge from-layer="769" from-port="0" to-layer="770" to-port="0"/>
		<edge from-layer="770" from-port="1" to-layer="771" to-port="1"/>
		<edge from-layer="771" from-port="2" to-layer="774" to-port="0"/>
		<edge from-layer="772" from-port="0" to-layer="773" to-port="0"/>
		<edge from-layer="773" from-port="1" to-layer="774" to-port="1"/>
		<edge from-layer="774" from-port="2" to-layer="775" to-port="1"/>
		<edge from-layer="775" from-port="3" to-layer="782" to-port="0"/>
		<edge from-layer="776" from-port="0" to-layer="778" to-port="1"/>
		<edge from-layer="777" from-port="0" to-layer="778" to-port="2"/>
		<edge from-layer="778" from-port="3" to-layer="781" to-port="0"/>
		<edge from-layer="779" from-port="0" to-layer="781" to-port="1"/>
		<edge from-layer="780" from-port="0" to-layer="781" to-port="2"/>
		<edge from-layer="781" from-port="3" to-layer="782" to-port="1"/>
		<edge from-layer="782" from-port="2" to-layer="783" to-port="2"/>
		<edge from-layer="783" from-port="3" to-layer="784" to-port="0"/>
	</edges>
	<meta_data>
		<MO_version value="2022.1.0-7019-cdb9bec7210-releases/2022/1"/>
		<Runtime_version value="2022.1.0-7019-cdb9bec7210-releases/2022/1"/>
		<legacy_path value="False"/>
		<cli_parameters>
			<caffe_parser_path value="DIR"/>
			<compress_fp16 value="True"/>
			<data_type value="FP32"/>
			<disable_nhwc_to_nchw value="False"/>
			<disable_omitting_optional value="False"/>
			<disable_resnet_optimization value="False"/>
			<disable_weights_compression value="False"/>
			<enable_concat_optimization value="False"/>
			<enable_flattening_nested_params value="False"/>
			<enable_ssd_gluoncv value="False"/>
			<extensions value="DIR"/>
			<framework value="onnx"/>
			<freeze_placeholder_with_value value="{}"/>
			<input_model value="DIR\best.onnx"/>
			<input_model_is_text value="False"/>
			<k value="DIR\CustomLayersMapping.xml"/>
			<layout value="()"/>
			<layout_values value="{}"/>
			<legacy_mxnet_model value="False"/>
			<log_level value="ERROR"/>
			<mean_scale_values value="{}"/>
			<mean_values value="()"/>
			<model_name value="best.fp16.s255"/>
			<output_dir value="DIR"/>
			<placeholder_data_types value="{}"/>
			<progress value="False"/>
			<remove_memory value="False"/>
			<remove_output_softmax value="False"/>
			<reverse_input_channels value="False"/>
			<save_params_from_nd value="False"/>
			<scale value="255.0"/>
			<scale_values value="()"/>
			<silent value="False"/>
			<source_layout value="()"/>
			<static_shape value="False"/>
			<stream_output value="False"/>
			<target_layout value="()"/>
			<transform value=""/>
			<use_legacy_frontend value="False"/>
			<use_new_frontend value="False"/>
			<unset unset_cli_parameters="batch, counts, disable_fusing, finegrain_fusing, input, input_checkpoint, input_meta_graph, input_proto, input_shape, input_symbol, mean_file, mean_file_offsets, nd_prefix_name, output, placeholder_shapes, pretrained_model_name, saved_model_dir, saved_model_tags, tensorboard_logdir, tensorflow_custom_layer_libraries, tensorflow_custom_operations_config_update, tensorflow_object_detection_api_pipeline_config, tensorflow_use_custom_operations_config, transformations_config"/>
		</cli_parameters>
	</meta_data>
</net>
